model.pth (torch, 238209 bytes, 30 tensors)

token_embedding_table.weight f4 [42, 64]
00000000: 27eb 33bf 3ada 263f 88c3 75bf ed36 42bf
00000010: eee7 d03e 7675 0440 fbac 993f 24bf 51bf
00000020: 1631 aebf 7dbe 0b40 306e 593e 1f62 e93f
00000030: 93cc aa3e fa95 883e 3938 38bf 91cd 6cbf
00000040: cf0e 97be bfea a6bf 1f9e 86bf a523 28c0
00000050: 21b4 c5be 4168 6a3f 6429 973d 83f8 943f
00000060: cdb6 21bf ac30 bb3e 7c42 d63d d9b1 f1be
00000070: d5ff ea3e 83a1 873f 3a9b d4be 2beb 203f
00000080: 9a14 c8bf 0c30 9abf 4902 e7bf 93d5 b3bf
00000090: f446 7e3f e74a e3bd c9c1 69bf 230a 8d3e
000000a0: fd39 14bd abd3 c0be ad05 cbbe f532 a5bf
000000b0: a07c 7e3f 39ff 1dc0 33ab f13e 6450 26bd
000000c0: 40be d7bd d38d 3fbf fde0 b93e 6481 cfbf
000000d0: 3ab3 38be 6731 afbf 98c1 1e3f d333 2bbf
000000e0: ff76 003f 6e44 89bf 8b66 adbf c634 0b3d
000000f0: b5eb abbe 726e 5dbf 7fd2 30be 150c 72bf
00000100: d528 3d3f 075d 8cbd 8c78 bd3f 8280 f9bf
00000110: ac05 c93f 795a 4dbf 4fd1 93bf 4d33 d2be
00000120: 032a 223f 5f84 493f e611 d8bd a1dd 3e3d
00000130: 1df4 5d3f b916 973d 4cb5 c93e 89ab a73f
00000140: a7a8 893e b5ac 48be 271e 71bd ae4b 433e
00000150: 4130 233f 3a4e e03c 2cf6 7f3e 6c1c 8fbd
00000160: bc12 a43d f58c 903e b99e 5dbd 2c27 0740
00000170: a59b 293d ced6 893f b4d1 a4be 19ab 3e3f
00000180: 44bd b43f 8328 ac3f ac84 6ebf 0c50 c8bf
00000190: d1f8 45bf ac16 af3d 236c 953c 082f 46be
000001a0: 28e0 09bf 1041 b9bf 8375 933f 538f 973f
000001b0: 3d1b ee3e fcab 39bf feed b63e 6ef4 863f
000001c0: b58c 063f 241f fc3c 0340 6e3e 48ab 883f
000001d0: ec73 023f d085 ca3f d889 0740 28fb e03f
000001e0: 9b31 bfbe 4d7e 98be 668d 203d 3ded bf3f
000001f0: 0726 2bbf 98b7 cabf b78b f33f 0633 3ebf
00000200: 29f7 5e3f 8cc9 6d3e 6ddd 6cbf 6283 433f
00000210: f67a bdbd 5905 543f 34f7 28bf 8720 033d
00000220: 801f 713d e48d 8dbf 2da8 37bf 6acc 78bf
00000230: b201 64be 122c 0940 8f2d cbbf 100f 7f3f
00000240: ce56 863d ad56 513f 2f27 473f 8db1 61bf
00000250: c6a5 a5bf 089d a3bf 50b5 13bf 90c8 b3bd
00000260: 443f 87bf 739a ba3f 6056 b9bf f50b 0c40
00000270: a280 2940 f4c4 013e f8f7 a93e e975 9cbd
00000280: c318 56bf 5b76 0b3f af4a b93f c41c ba3d
00000290: e905 f5bd 1a8d 92bc cb19 cd3f b7a3 e4be
000002a0: 8164 453f 4382 c03f 3a10 9f3e d4bc f13f
000002b0: 3658 963f 9445 f7be 0fe0 2ebf 9485 143f
000002c0: 8727 83bf 201a ddbe cc90 51bf 0200 04c0
000002d0: f2bf 34bf 569b 043f b3e7 c3bf 5dd2 9ebe
000002e0: fc30 03c0 6bb2 8c3f 61de 023f dec0 cebe
000002f0: 131c 1c3f 00f8 443d 2b57 193f 86d1 193f
00000300: 9bd7 a93f b1ca 42bf d12a a33e afda cd3e
00000310: 97b0 aebf c860 cb3f 4c18 113f 2747 93bd
00000320: 03c4 aebe 7536 b5bf 3cd5 a7be 3c2c d6be
00000330: 08a9 bbbf a356 953c 003e 1840 0c2a 0bc0
00000340: 1288 12c0 8f9c f9bf 216e 103f ebbb 643f
00000350: 7a9c 213f 25d7 22bc f9cc 3d3f 865b e73d
00000360: 9ef2 b7bc b205 97bf 575b a93f 9aba 17bf
00000370: 5016 1b3e a2e2 ea3f 9d17 c63f 145b 8dbf
00000380: 7a1d 25be 7128 583d 739c 94bf 28c7 a63f
00000390: ec54 9a3e af33 61bf f4c7 8bbe 325d a73f
000003a0: 46ca 3abe 7da5 dbbc ce22 c7be 0591 21bf
000003b0: 006d 633f e8cf 8bbf fd10 10be 32e8 46be
000003c0: ac05 6dbf 59cc 0bc0 990a 2cbf 26ae ab3e
000003d0: f24f efbf 0d5d d63f ac5a a7bf 6cfc 533f
000003e0: 5cec b33f 9ff8 7dbf 47d2 44be cb8d 61bf
000003f0: a119 e43e 053b 45bf d95b 413f 2df6 72bf
-0.7028069 0.6517674 -0.9600148 -0.7586506 0.40801948 2.0696692 1.2005914 -0.8193228
-1.360873 2.1835015 0.2123344 1.8233069 0.33359203 0.26676923 -0.7196079 -0.9250117
-0.29503486 -1.3040389 -1.0517005 -2.6271756 -0.3861399 0.9156533 0.073809415 1.163834
-0.63169557 0.3656057 0.104619 -0.47206 0.4589831 1.0596164 -0.41524678 0.6285884
-1.5631287 -1.2045913 -1.8047572 -1.4049553 0.99327016 -0.11098271 -0.9131132 0.27546796
-0.036188114 -0.3766149 -0.39652768 -1.2906176 0.9940891 -2.4687026 0.47200927 -0.04060401
-0.10534334 -0.7482578 0.36304465 -1.6211362 -0.1803712 -1.3686951 0.6201415 -0.6687595
0.50181574 -1.0724008 -1.3546919 0.033985876 -0.33578268 -0.8649665 -0.17267798 -0.94549686
0.7389043 -0.06853681 1.4802413 -1.9492342 1.5704856 -0.80216175 -1.1548251 -0.41054764
0.63345355 0.7871761 -0.10550289 0.04659808 0.8670061 0.07377381 0.3939613 1.3099223
0.26886484 -0.19597133 -0.058866646 0.19071838 0.63745505 0.027381051 0.24996251 -0.06987843
0.08011386 0.28232542 -0.054106448 2.1117659 0.0414082 1.0768678 -0.3219124 0.74479824
1.4120259 1.3449863 -0.9317119 -1.5649428 -0.7733279 0.08549246 0.01824004 -0.19353878
-0.5385766 -1.447298 1.1520237 1.1840614 0.46505156 -0.7252805 0.3572845 1.0543344
0.5255845 0.030776568 0.23266606 1.0677271 0.5095813 1.5822086 2.1177883 1.7576647
-0.37342533 -0.2978386 0.039197348 1.4994274 -0.668549 -1.5837278 1.9027013 -0.74296606
0.87095886 0.23221415 -0.9252537 0.7637235 -0.092519686 0.8282066 -0.660022 0.032013442
0.05886793 -1.1058927 -0.7174099 -0.9718691 -0.22266272 2.1433148 -1.5873278 0.9963236
0.065595254 0.8177288 0.77794164 -0.88161546 -1.2941215 -1.2782297 -0.57698536 -0.08778489
-1.0566182 1.4578384 -1.4479485 2.1882298 2.6484761 0.12672788 0.33196998 -0.07639677
-0.83631533 0.5447747 1.4475917 0.09087518 -0.11964018 -0.017889548 1.6023496 -0.44656155
0.7710648 1.5039753 0.31067067 1.8885751 1.174567 -0.4829527 -0.68310636 0.58016324
-1.0246438 -0.43183994 -0.8186157 -2.0625005 -0.70605385 0.51799524 -1.5305084 -0.3101987
-2.0498648 1.0991949 0.51120573 -0.4038152 0.6098034 0.048088074 0.5989863 0.6008533
1.3268923 -0.7609053 0.31868604 0.40205905 -1.3647641 1.588891 0.566777 -0.071913056
-0.3413392 -1.4157244 -0.32779872 -0.41830623 -1.4660959 0.018229788 2.3787842 -2.1744413
-2.289555 -1.9500903 0.56418043 0.8934924 0.6312939 -0.00993899 0.7414089 0.112967536
-0.022454556 -1.1798613 1.3231 -0.59269106 0.1514523 1.8350413 1.5475956 -1.104342
-0.16124526 0.052772943 -1.1610245 1.3029528 0.30142915 -0.8796949 -0.2730099 1.3075316
-0.18241224 -0.02681231 -0.3889374 -0.6311191 0.88838196 -1.0922823 -0.1406898 -0.19424513
-0.9258678 -2.1843474 -0.6720367 0.33531302 -1.8696272 1.6747147 -1.3074546 0.8280704
1.4056506 -0.9920749 -0.1922084 -0.88106984 0.44550803 -0.7704318 0.75530773 -0.94906884

position_embedding_table.weight f4 [16, 64]
00000000: 6f6c f43f 4aef 04bb 525a 2840 b90c 99bf
00000010: 3762 3fbf 842e b63e d131 ae3e 3770 913e
00000020: 0075 533e 19d6 86bf 420c 71bf c8eb 9b3f
00000030: 2346 f7bf 7fb1 3cbf 39e3 323f 30fa 1b3e
00000040: d19d dd3f 52e7 c93e 7463 1fc0 8f1a a33d
00000050: 42b2 423f 2e79 36c0 4149 a9be 9faa 7abe
00000060: 6625 003d ea23 dcbf 84e9 eabf 45a4 0cbf
00000070: af3f 253f f593 513f 0e99 103f dfd6 9e3f
00000080: 7763 0b40 b358 853e 7be8 fa3f 0283 b0bf
00000090: 3a65 d9bf f466 62c0 8e6c a5be 2602 323e
000000a0: dd20 003d 1c72 d23f ae61 6cbf af37 b53e
000000b0: e4d2 eb3f 22b1 4d3f 0c7b b63e 66ed 7ebf
000000c0: b69a 22bf a685 c8be 8907 a8bd 0f35 6dbe
000000d0: 6bde 74bf 14ac b3bf c9b7 863f cc32 ad3f
000000e0: bb39 b4be 3335 c43f cbb8 d5bf 3bdc d63f
000000f0: 82ed 9f3f 4ede 763f 2dc5 dd3e 1513 9d3f
00000100: 9ff4 8abf bb45 c03f a584 9b3f ed00 6d3e
00000110: 62ac 693e fb08 ccbf 6ade ebbe db50 e4be
00000120: 3e3c d83e 9fb7 453f 10f8 4f3d 89bf b1bf
00000130: 385f 01bc 66a7 273f 1c69 acbe ab99 25bf
00000140: 7207 4f3f ac9d 78bf 5067 bebe b4c5 f4bf
00000150: 839b 253f 4823 dabf 4128 eebd 3790 b9bd
00000160: a32e 1b3c 889a 56bf 6f81 203f cc52 853f
00000170: daef f2be 1b2c 3c3a 02d5 24c0 b793 c7bf
00000180: df94 243f 9875 80bf 2465 ac3f a02e 83be
00000190: d0cf edbf c737 a4be 4aa6 99bf 831f 00bf
000001a0: bdb3 89be b5a7 5f3f 5bd9 62be b88f 8bbf
000001b0: 5804 3ebf fede 923d c523 783e aca0 31be
000001c0: a99e efbe 95e3 853f 2c23 df3d 41b6 1340
000001d0: 78d2 cdbf 26b8 cd3e 3a73 bcbe e4cd 033f
000001e0: fde4 bcbd 6cef ce3d 0c0d b6be 6768 51bf
000001f0: 1e7c 3dbf 45b7 9f3f b4f2 8b3f 199c d13f
00000200: 0303 54bf cc17 1abf fcc6 87be 2b51 5bbf
00000210: 353c 52bf b6b6 ae3f fbcb 41be 1171 93be
00000220: 2de8 bb3f a17c 21bf 303d 80bf 9e55 93bf
00000230: ba60 55bf 1c0e e8be 2402 033d 0ecf c0be
00000240: 7edc a83e e012 6c3f 4f1a 4bbf 08b6 9abf
00000250: 2246 a03f 5bf8 b7be a168 e33e e6bf 453f
00000260: f9c2 4fbf 8c35 713d f72a 37bf 0be3 8cbf
00000270: c14c e9bd 03b6 7fbf 4702 86bf 628a 8e3f
00000280: 2d04 aebf 95cb b03f da5e a5bf e2ac 183e
00000290: 397a 973e d25b 73bf 98b2 99bb 893c 753f
000002a0: eb91 a03f 529b 37bd 5fa9 203f aba1 51bf
000002b0: 9381 103f 4e30 d5be 1f56 26bf 9b15 173e
000002c0: a08f 2c3f e6c2 9c3f 3010 21bf fa2f 5e3f
000002d0: 337b c63f c31c 0b3f e109 9abe 8fef 443f
000002e0: e7b1 82be e6d5 f3bf c5d9 9fbe a297 00bf
000002f0: c772 88bf dd76 a33e 5751 13be a969 763f
00000300: 440b 173f 0339 e0be d49b af3d be5a 8bbf
00000310: 6123 c4be 586f 68bf e064 fbbe 81e7 b0be
00000320: 10c3 1d3f 1175 373f 6d69 363f 8565 e7be
00000330: 6372 1b3f 6bb8 31bf 0081 30bf fcdc bc3f
00000340: d426 de3d 9c9d 32bd e71b e2be 3dfb 1ebf
00000350: d521 4ebf 0f78 6a3e 6a83 2b3f e46d 8cbf
00000360: dfa5 c83e ca10 543e a7fb 923f 4c70 9abe
00000370: a07a e73f bf10 9bbf 8582 c13c ec08 88bf
00000380: 381d ae3e d143 6b3e 959d 1f3e ad91 eebe
00000390: b43b 4a3d d93b 493f dd0d 15bf 407d 453f
000003a0: 53db b4bd 0445 49bf 1d80 18bf 874a 24bf
000003b0: 677b bf3e a5ca d33e 7f74 053f d945 643f
000003c0: 368a ab3e 7639 073f 97e2 9e3f f071 15c0
000003d0: f68f 183c 7425 8bbf 052e 2cbf 97a2 34bf
000003e0: ba98 69bc 67ed 0ac0 90a7 edbe 94c8 99be
000003f0: 22da ccbe 900d bf3d 14f0 a33e fac1 483f
1.9095591 -0.002028423 2.6305127 -1.1957008 -0.7475924 0.35582364 0.34022382 0.28405926
0.206501 -1.0534087 -0.9415933 1.218133 -1.9318279 -0.7370834 0.69877964 0.15232158
1.7313787 0.39434296 -2.4904451 0.0796405 0.7605325 -2.8511462 -0.330637 -0.2447915
0.031285666 -1.719846 -1.8352513 -0.54938155 0.645503 0.8186639 0.5648354 1.2409323
2.1779459 0.26044235 1.9602197 -1.378998 -1.6984017 -3.5375338 -0.32309383 0.17383632
0.03128134 1.6441073 -0.9233655 0.35394046 1.8423734 0.8034841 0.35640752 -0.9958099
-0.6351732 -0.39164466 -0.08204562 -0.23164771 -0.9565188 -1.4036889 1.0524837 1.3531127
-0.35200295 1.5328735 -1.6697019 1.6785959 1.2494357 0.9643296 0.43314496 1.2271448
-1.0855902 1.502128 1.2149855 0.23144884 0.22819665 -1.5940241 -0.46068126 -0.44592938
0.4223346 0.7723331 0.05077368 -1.3886577 -0.007896237 0.65489805 -0.33673942 -0.64687604
0.80870736 -0.9711559 -0.37188196 -1.9122834 0.6469042 -1.7042017 -0.116287716 -0.0906071
0.009471568 -0.83829546 0.626975 1.0415893 -0.47448617 0.0007178203 -2.575501 -1.5591954
0.6428966 -1.0035887 1.3468366 -0.2562151 -1.8579044 -0.32073805 -1.2003872 -0.50048083
-0.26894942 0.87365276 -0.22153227 -1.0903234 -0.7422538 0.07171439 0.24232395 -0.17346448
-0.46800736 1.0460078 0.108953804 2.307999 -1.6079855 0.40179557 -0.3680666 0.5148604
-0.092233635 0.1010426 -0.3555683 -0.8179993 -0.7401751 1.2477804 1.0933442 1.6375762
-0.82817096 -0.6019256 -0.26519 -0.8567073 -0.8212312 1.3649509 -0.18925469 -0.287972
1.468023 -0.63080794 -1.0018673 -1.1510503 -0.8335072 -0.45323265 0.031984463 -0.3765797
0.32980722 0.922163 -0.7933702 -1.2086802 1.2521403 -0.35931668 0.44415763 0.7724594
-0.8115688 0.058888957 -0.71549934 -1.1006788 -0.11391593 -0.998871 -1.0469445 1.1135981
-1.3595024 1.3812128 -1.2919571 0.149097 0.29585436 -0.9506198 -0.0046904795 0.95795494
1.2544531 -0.04482586 0.6275844 -0.8188731 0.56447715 -0.41638416 -0.6497516 0.14754336
0.67406654 1.2246978 -0.62915325 0.86791956 1.5506347 0.5434076 -0.30085662 0.7692804
-0.25526354 -1.9049652 -0.31220832 -0.50231373 -1.0660027 0.31926623 -0.14386497 0.96254975
0.59001565 -0.43793496 0.08574644 -1.0887067 -0.38308242 -0.907949 -0.491004 -0.34551623
0.61625767 0.71663004 0.71254617 -0.4519464 0.60721415 -0.69422024 -0.6894684 1.4754939
0.108472496 -0.04360734 -0.44161913 -0.6210211 -0.80520374 0.22897361 0.66997397 -1.0971036
0.3918905 0.2070953 1.1483048 -0.301638 1.8084297 -1.2114486 0.023621807 -1.0627723
0.34006667 0.22975089 0.15587457 -0.46595517 0.049373344 0.78606945 -0.5822428 0.7714424
-0.08830895 -0.78620934 -0.59570485 -0.6417622 0.37398836 0.41365543 0.52130884 0.8916908
0.33503884 0.52822053 1.24129 -2.3350792 0.009311667 -1.0870805 -0.6725772 -0.7056059
-0.014257604 -2.17074 -0.46416903 -0.3003584 -0.40010172 0.09328759 0.32019103 0.78420985

blocks.0.sa.heads.0.tril f4 [16, 16]
00000000: 0000 803f 0000 0000 0000 0000 0000 0000
00000010: 0000 0000 0000 0000 0000 0000 0000 0000
00000020: 0000 0000 0000 0000 0000 0000 0000 0000
00000030: 0000 0000 0000 0000 0000 0000 0000 0000
00000040: 0000 803f 0000 803f 0000 0000 0000 0000
00000050: 0000 0000 0000 0000 0000 0000 0000 0000
00000060: 0000 0000 0000 0000 0000 0000 0000 0000
00000070: 0000 0000 0000 0000 0000 0000 0000 0000
00000080: 0000 803f 0000 803f 0000 803f 0000 0000
00000090: 0000 0000 0000 0000 0000 0000 0000 0000
000000a0: 0000 0000 0000 0000 0000 0000 0000 0000
000000b0: 0000 0000 0000 0000 0000 0000 0000 0000
000000c0: 0000 803f 0000 803f 0000 803f 0000 803f
000000d0: 0000 0000 0000 0000 0000 0000 0000 0000
000000e0: 0000 0000 0000 0000 0000 0000 0000 0000
000000f0: 0000 0000 0000 0000 0000 0000 0000 0000
00000100: 0000 803f 0000 803f 0000 803f 0000 803f
00000110: 0000 803f 0000 0000 0000 0000 0000 0000
00000120: 0000 0000 0000 0000 0000 0000 0000 0000
00000130: 0000 0000 0000 0000 0000 0000 0000 0000
00000140: 0000 803f 0000 803f 0000 803f 0000 803f
00000150: 0000 803f 0000 803f 0000 0000 0000 0000
00000160: 0000 0000 0000 0000 0000 0000 0000 0000
00000170: 0000 0000 0000 0000 0000 0000 0000 0000
00000180: 0000 803f 0000 803f 0000 803f 0000 803f
00000190: 0000 803f 0000 803f 0000 803f 0000 0000
000001a0: 0000 0000 0000 0000 0000 0000 0000 0000
000001b0: 0000 0000 0000 0000 0000 0000 0000 0000
000001c0: 0000 803f 0000 803f 0000 803f 0000 803f
000001d0: 0000 803f 0000 803f 0000 803f 0000 803f
000001e0: 0000 0000 0000 0000 0000 0000 0000 0000
000001f0: 0000 0000 0000 0000 0000 0000 0000 0000
00000200: 0000 803f 0000 803f 0000 803f 0000 803f
00000210: 0000 803f 0000 803f 0000 803f 0000 803f
00000220: 0000 803f 0000 0000 0000 0000 0000 0000
00000230: 0000 0000 0000 0000 0000 0000 0000 0000
00000240: 0000 803f 0000 803f 0000 803f 0000 803f
00000250: 0000 803f 0000 803f 0000 803f 0000 803f
00000260: 0000 803f 0000 803f 0000 0000 0000 0000
00000270: 0000 0000 0000 0000 0000 0000 0000 0000
00000280: 0000 803f 0000 803f 0000 803f 0000 803f
00000290: 0000 803f 0000 803f 0000 803f 0000 803f
000002a0: 0000 803f 0000 803f 0000 803f 0000 0000
000002b0: 0000 0000 0000 0000 0000 0000 0000 0000
000002c0: 0000 803f 0000 803f 0000 803f 0000 803f
000002d0: 0000 803f 0000 803f 0000 803f 0000 803f
000002e0: 0000 803f 0000 803f 0000 803f 0000 803f
000002f0: 0000 0000 0000 0000 0000 0000 0000 0000
00000300: 0000 803f 0000 803f 0000 803f 0000 803f
00000310: 0000 803f 0000 803f 0000 803f 0000 803f
00000320: 0000 803f 0000 803f 0000 803f 0000 803f
00000330: 0000 803f 0000 0000 0000 0000 0000 0000
00000340: 0000 803f 0000 803f 0000 803f 0000 803f
00000350: 0000 803f 0000 803f 0000 803f 0000 803f
00000360: 0000 803f 0000 803f 0000 803f 0000 803f
00000370: 0000 803f 0000 803f 0000 0000 0000 0000
00000380: 0000 803f 0000 803f 0000 803f 0000 803f
00000390: 0000 803f 0000 803f 0000 803f 0000 803f
000003a0: 0000 803f 0000 803f 0000 803f 0000 803f
000003b0: 0000 803f 0000 803f 0000 803f 0000 0000
000003c0: 0000 803f 0000 803f 0000 803f 0000 803f
000003d0: 0000 803f 0000 803f 0000 803f 0000 803f
000003e0: 0000 803f 0000 803f 0000 803f 0000 803f
000003f0: 0000 803f 0000 803f 0000 803f 0000 803f
1.0 0.0 0.0 0.0 0.0 0.0 0.0 0.0
0.0 0.0 0.0 0.0 0.0 0.0 0.0 0.0
1.0 1.0 0.0 0.0 0.0 0.0 0.0 0.0
0.0 0.0 0.0 0.0 0.0 0.0 0.0 0.0
1.0 1.0 1.0 0.0 0.0 0.0 0.0 0.0
0.0 0.0 0.0 0.0 0.0 0.0 0.0 0.0
1.0 1.0 1.0 1.0 0.0 0.0 0.0 0.0
0.0 0.0 0.0 0.0 0.0 0.0 0.0 0.0
1.0 1.0 1.0 1.0 1.0 0.0 0.0 0.0
0.0 0.0 0.0 0.0 0.0 0.0 0.0 0.0
1.0 1.0 1.0 1.0 1.0 1.0 0.0 0.0
0.0 0.0 0.0 0.0 0.0 0.0 0.0 0.0
1.0 1.0 1.0 1.0 1.0 1.0 1.0 0.0
0.0 0.0 0.0 0.0 0.0 0.0 0.0 0.0
1.0 1.0 1.0 1.0 1.0 1.0 1.0 1.0
0.0 0.0 0.0 0.0 0.0 0.0 0.0 0.0
1.0 1.0 1.0 1.0 1.0 1.0 1.0 1.0
1.0 0.0 0.0 0.0 0.0 0.0 0.0 0.0
1.0 1.0 1.0 1.0 1.0 1.0 1.0 1.0
1.0 1.0 0.0 0.0 0.0 0.0 0.0 0.0
1.0 1.0 1.0 1.0 1.0 1.0 1.0 1.0
1.0 1.0 1.0 0.0 0.0 0.0 0.0 0.0
1.0 1.0 1.0 1.0 1.0 1.0 1.0 1.0
1.0 1.0 1.0 1.0 0.0 0.0 0.0 0.0
1.0 1.0 1.0 1.0 1.0 1.0 1.0 1.0
1.0 1.0 1.0 1.0 1.0 0.0 0.0 0.0
1.0 1.0 1.0 1.0 1.0 1.0 1.0 1.0
1.0 1.0 1.0 1.0 1.0 1.0 0.0 0.0
1.0 1.0 1.0 1.0 1.0 1.0 1.0 1.0
1.0 1.0 1.0 1.0 1.0 1.0 1.0 0.0
1.0 1.0 1.0 1.0 1.0 1.0 1.0 1.0
1.0 1.0 1.0 1.0 1.0 1.0 1.0 1.0

blocks.0.sa.heads.0.key.weight f4 [16, 64]
00000000: 769e d0be f5d1 fd3d 6c63 7dbd 7603 2fbe
00000010: df71 293e 296f b93d bfc5 89be 878b c9be
00000020: 1327 893e 0774 163e 33bb 15be dd21 a03d
00000030: 7369 133e a5e9 dfbd ac2e 3bbe b594 f83d
00000040: d7ef ccbd 0354 273d 07ec 6fbe c7f0 7b3d
00000050: b975 a53d a94c ebbd 76ef 13be 5c69 a93e
00000060: 55ed a1bd 439d a2bd d01d 9dbd 27ef 22bd
00000070: 79af d33d f878 dabd 0586 2bbe 05cd 8e3d
00000080: bf2d 0dbe ca39 4cbd 372c 0d3e f728 c7bb
00000090: 567e 36be 0f6f e5bd 50c9 083d edd4 963e
000000a0: 62c6 1e3e be9b 373d 288a 3c3e de10 77be
000000b0: 3406 7d3d 29c3 1bbe 675b 8a3d 84b1 043d
000000c0: 3fce 9a3d cdcc 993e ccd6 e3bd fcfe 533e
000000d0: 56db 0ebe bdcb 3a3c c1b1 31bd ecfe 52bd
000000e0: eafc b43e f185 ac3d 4061 2abe b5bb 3abd
000000f0: 5324 4d3d 40ce b83e c67f 0b3e 668d 18be
00000100: 7e07 0f3e 6c6a 183e 1df3 fc3c 9f2b 93bd
00000110: b9b1 1e3e 5433 0abe a39e cd3d 0129 563d
00000120: a2cd 843b 5274 453c b6bb b3bd 279e cdbc
00000130: f988 c83d b57a 2d3e 257b 373e df4b a7bd
00000140: b0c4 d2bd 37fb 8abd 3457 2cbd 6c96 88bd
00000150: 4f49 e33d 12a1 52bd 20bc 2fbd a476 39bd
00000160: d6e2 043f f5d9 f4bd 85fb 0fbc 1a40 1f3d
00000170: 289b 91be 5eaf 623d 26c0 a6bd 4eef 323e
00000180: ff6c 22be 0dbd 96be 0fbf e43d e191 3abc
00000190: 23a2 2d3c 1be4 10be 48ea 883d b2fc 92bc
000001a0: 872b 21be 3ea5 2fbe 1e16 a33d d5f8 7cbe
000001b0: 105c 48bd 960a 2e3d e9ff 843e 826f 363e
000001c0: 1a17 ed3d 1c6d 32be 879b 9ebe 5245 12bd
000001d0: f1d3 8b3d d193 a2bd e4d8 a03d 0bcc a0be
000001e0: b11e ca3d 7565 d73e 82b6 7cbd 0427 44be
000001f0: 1353 9a3d 791a 503c 013d 833d 0ed9 d2bd
00000200: e258 333e 4b29 2bbe ec02 0e3f 046b 92bd
00000210: 2e57 93bd aceb 053e 8df1 acbd 3988 433d
00000220: eee8 bebd 76ba 833e e1b2 f9bc 093a 5f3d
00000230: 0b60 843c d68d 6abd 294c 713e f3d4 20be
00000240: 6d5f bebd 9e99 35be 1dca 963d 64a0 8abe
00000250: 9504 08be 25a8 29be af77 a5bc dec6 5cbd
00000260: 1d37 1c3e f99d 03bd 3251 f9bd 0b9f e93d
00000270: 1f9e 893e 37ea 983d 5e58 023d 48d9 83be
00000280: fe29 683d f101 573e 7024 39be 4429 35be
00000290: a5a8 3fbc 0c40 41be 6897 06be 343f a93e
000002a0: f488 37be 94be 373e 25af 463d af1e b7bd
000002b0: 4b64 0bbe 4beb f8bd f274 a5bc 33f1 ebbd
000002c0: 10e0 38be 444b 563e 5d6f 09be 6ea5 973e
000002d0: ed96 3b3c a10e 7c3e a512 e1bd 265a 24be
000002e0: 98c1 673d 2b9a 253e 9dd3 7fbe 69ef 043e
000002f0: 4a4d 7f3e 062d 52bd 6b25 913e dcbc c43d
00000300: dce8 c13d 798b 8b3c 5750 233e de0b 7d3e
00000310: b079 823d 2841 af3b 29bc b8bd 166a 02be
00000320: aa55 2cbe e94d 0c3d 897b b6bd cf60 98be
00000330: 32a5 343e 5fe2 e7bd 7c15 86be 2acb 63be
00000340: 08fe 953e b0df 853e 8ebb dbbc 45d3 16be
00000350: 6bdc 503d 0120 413e d8c5 46bd 5fa9 97be
00000360: fc58 c2bd 7580 b83d 6bab db3d ec5f 03bd
00000370: ad1c 8b3d 7c5d 113e 93a7 c83d 76c6 043d
00000380: 9699 1cbe c705 6c3d 1733 9ebd e1b3 e93d
00000390: 9b81 79bd 0ec1 9fbc 1a15 e73d 64af 91bd
000003a0: 26cd a4bd 8d48 04be 7300 763d 1b1a 4d3e
000003b0: 6f40 59be 7639 06bd e13a 13be f911 72bd
000003c0: 529d 12bd 51df 0fbe 09c1 113e c1ed af3d
000003d0: 1711 a83d 5278 f53b b5c9 e73d 1371 373d
000003e0: 8c83 b0bd 4929 163d 5c82 123e 63a9 42be
000003f0: 4d33 1fbe c1e7 df3d a8a1 97bd c84e 55be
-0.40745896 0.12393562 -0.061862394 -0.17091164 0.16547345 0.09054405 -0.2690868 -0.39364263
0.26787624 0.14692698 -0.14622192 0.07818959 0.14395694 -0.10933236 -0.18279523 0.121377386
-0.10006683 0.040851604 -0.23429881 0.06150892 0.080790944 -0.11489231 -0.14446816 0.33088195
-0.079065956 -0.079401515 -0.07671702 -0.039778855 0.10336203 -0.10667604 -0.16750343 0.06972698
-0.13786982 -0.0498598 0.13786398 -0.0060778814 -0.17821631 -0.11202823 0.03339511 0.29459324
0.15505365 0.04482626 0.18412077 -0.24127528 0.061773494 -0.15211166 0.06755715 0.032395855
0.075588696 0.30039063 -0.11124954 0.20702738 -0.13950858 0.011401114 -0.04338241 -0.051512644
0.35349208 0.08423985 -0.1663866 -0.045589168 0.05008347 0.36094856 0.1362296 -0.14897689
0.13967702 0.14884347 0.030877644 -0.071860544 0.15497483 -0.13496143 0.10040023 0.052285198
0.0040528337 0.012051659 -0.087760374 -0.025099827 0.097917505 0.1694134 0.1791807 -0.08168768
-0.102914214 -0.06786197 -0.04207535 -0.06669316 0.11097967 -0.05142314 -0.04290402 -0.04527916
0.51908624 -0.119556345 -0.008787994 0.03887949 -0.28438687 0.055343024 -0.08142118 0.174741
-0.15861891 -0.2944111 0.11169254 -0.011387319 0.010597738 -0.14149515 0.066853106 -0.01794276
-0.1573926 -0.17152879 0.07963203 -0.24704297 -0.048915923 0.042490564 0.25976494 0.17815974
0.11576672 -0.17424434 -0.30978033 -0.03571064 0.06827534 -0.0793835 0.078538686 -0.31405672
0.09869135 0.42069593 -0.06169749 -0.19155508 0.075353764 0.012701624 0.0640812 -0.10295306
0.17514375 -0.16714971 0.5547321 -0.07149318 -0.071943626 0.13078183 -0.0844451 0.047737334
-0.093217716 0.25728196 -0.030480804 0.054498706 0.016159078 -0.05726417 0.23564209 -0.15706234
-0.09295545 -0.17734382 0.07362769 -0.27075493 -0.13282998 -0.16568048 -0.020198671 -0.053900592
0.15255399 -0.032133076 -0.1217369 0.11407288 0.2687845 0.07466548 0.031822555 -0.2575171
0.056680672 0.20996834 -0.18080306 -0.17691523 -0.011697923 -0.18872088 -0.13143694 0.33056033
-0.17923337 0.17943794 0.048506875 -0.08941399 -0.13612477 -0.121542536 -0.020197365 -0.115206145
-0.18054223 0.20927149 -0.13421388 0.296184 0.011449558 0.24614955 -0.10989884 -0.16050014
0.05658111 0.16172092 -0.24983068 0.12981953 0.24931827 -0.05131247 0.2834886 0.096063346
0.094682425 0.01703428 0.15948616 0.24711558 0.06370866 0.0053483434 -0.09020264 -0.12735781
-0.16829553 0.03425399 -0.08910281 -0.2976136 0.17641142 -0.11322474 -0.26188266 -0.2224547
0.29295373 0.26147223 -0.026822831 -0.1472903 0.050991457 0.18859865 -0.048528522 -0.29621407
-0.09489629 0.09008876 0.10726055 -0.0320739 0.06792579 0.14195818 0.09797587 0.03241583
-0.15292963 0.057622697 -0.07724588 0.11411262 -0.060914617 -0.019501235 0.11283322 -0.07113531
-0.080469415 -0.12918301 0.060059022 0.2002949 -0.21215986 -0.032769643 -0.1437793 -0.05909917
-0.035794564 -0.14050032 0.14233793 0.0859027 0.08206385 0.00749115 0.113177694 0.04478557
-0.086188406 0.036660466 0.1430754 -0.19009928 -0.15546913 0.109328754 -0.0740388 -0.20830834

blocks.0.sa.heads.0.query.weight f4 [16, 64]
00000000: 1a8b 1f3e 4940 9f3c b257 81be 4152 65bd
00000010: 0933 7fbe b45e 8abd f550 523e 08f9 b73e
00000020: c942 593e 4aa3 57be 9995 213d 1f12 c13d
00000030: 58e5 29be 2dbd 23be 6320 1cbe cfe6 d2bd
00000040: 5a58 b5bc 59ad 27be c5ca 85bc 0ae4 fa3d
00000050: 8665 1bbd 7258 aabd 209d 8d3d 25f1 fb3c
00000060: 247d 913d 38da 353e c8a0 7bbc 874b cebc
00000070: 33f1 023e f157 7ebe a996 453e ff34 90be
00000080: d79b 80bd 8ad4 c7bd 652f 9f3d c082 5abd
00000090: ba91 7f3d 32a1 853e b34a 173e e7ec 163e
000000a0: a75b 833e 88bf 6d3e 9a62 2ebe 51f4 8ebc
000000b0: ff82 acbd 8ad9 cc3e 23d2 443e be1a 623c
000000c0: 54a7 5f3d 7307 c53e e9c6 32bc 8136 553c
000000d0: 2003 1d3d 2d62 f8bd 5e67 bfbe a813 f6bd
000000e0: 11d9 96bc de33 d9bc 181e 163d 28ed 653e
000000f0: 1f68 71bd fb7b 43be bb5e 803c 36a2 903e
00000100: da31 2d3e ba7b 1bbe 9ec5 bebd 4e7b ad3c
00000110: 10b7 1a3e b7f0 8a3e 39cc aabd 7477 52bd
00000120: 5614 77be d3a2 9b3d 1c69 02bd f23b bb3d
00000130: 356a 63bc 0cbc 81be 87d9 05be c6ee 72bd
00000140: 530c 883e d8ef af3d c023 8dbd 727c 7c3d
00000150: 0fca 9bbc 3903 b3bc bab7 f0bd 725a f93d
00000160: dd70 80be 38b7 26bc 1a7f 883e 1d9d 54be
00000170: 80af 9d3d 2bab 7b3d a254 123e d67f ae3b
00000180: 822e 6fbe d40c 793e 7fba 6a3d 5ce0 82bd
00000190: 92ec c4bd e2f3 b83d 929e b4bd c855 e5bd
000001a0: b555 973e ae86 d93d 550a fa3d 712c 4e3e
000001b0: 0368 80be 4703 49bd 944b 20be 30c9 a0be
000001c0: db1f 943c 3a89 003e 286c 0ebd dc7e 783e
000001d0: 9a5b ce3d f01b 9dbd c1bb bd3c f392 533d
000001e0: 68a1 ecbb f401 03bb 578c 8b3c f539 873d
000001f0: e43e 13be 5923 d8bd 8df8 0fbd d3d1 1a3e
00000200: 3ad4 ed3b 9668 7c3e ca80 1bbd 195d 4e3e
00000210: e8c7 4dbe fc7a cbbc e43f 08bd a98c 143e
00000220: 785b 65be aab6 22be fe29 bf3e 9969 07bd
00000230: 5c73 80be 2234 99ba ac26 2dbe 9be6 85bd
00000240: fc88 10be bc0e 6bbd a879 3dbe e5df dcbd
00000250: aac6 063d c941 8bbd d244 483e a00a 003e
00000260: 9350 27bd 03cd 003e 7fb5 143c 47eb 243d
00000270: 4b1d a8be e048 b93d 6f3e 373e 6a9e 1cbd
00000280: c798 28bd 059a 04be 9d04 46be 9e91 38bd
00000290: 788a 9abd dd31 153e 10be 42be ba75 0cbe
000002a0: 08fd 2dbe 4234 61bd b5d9 673e f980 fe3e
000002b0: 3c67 533e fdeb 00be 56c7 29be fd7b ddbb
000002c0: 78e8 353c 10fb ff3d 90c1 b33d 4c9b 593e
000002d0: c44c 8cbd abba e5bd 13cc 0fbd 72af 433e
000002e0: af16 ec3d f047 6dbe af71 5b3e a7d2 57be
000002f0: b331 463e ce3b eebc 4654 973c 45f3 b03d
00000300: 8927 1e3d eb7a c5bb 059b 0f3e c85f adbe
00000310: 15b0 28be 3fef a1bb 07e6 6f3d 3a2d 553d
00000320: e623 283e aa10 c33d 5616 983c af9e 7d3b
00000330: e6c3 39bd 53bd 8c3c 8007 4e3e 29a9 743e
00000340: 19d8 eebc 4104 2a3e 6cf3 7d3e 4d37 013e
00000350: 446d 27be 38ec 93be 975d 28be c06c 03be
00000360: a9e6 a1bd 1c81 273e b2a8 573d c426 3b3e
00000370: 2135 d5bc 46de 19be 8c1e 16be 3c45 3e3e
00000380: 6834 1f3d 8701 ca3d f031 8ebe 8df8 2bbc
00000390: 2ee8 26be 169d fa3d 0ac3 7b3d fac2 f23d
000003a0: 1ff5 2abd d9c2 e0bd 0f1e 503c e2da 743e
000003b0: 96df 223d 53db 0bbe dd8f d93c fbbc d6bb
000003c0: 1ba7 be3c 0d06 9bbd a5e7 c6bb ebc1 16be
000003d0: 0344 f03d 0193 8cbd 3626 e33c 8e83 adbc
000003e0: 1c39 85bd 1f48 73be f74f debb 4795 f63d
000003f0: 7406 b4be 16fc 81be 86cf 183e a78f 413d
0.15580407 0.019439833 -0.2526222 -0.055986647 -0.24921812 -0.067563444 0.20538695 0.35932183
0.21216883 -0.21058384 0.039449308 0.094272844 -0.16591394 -0.15990134 -0.1524673 -0.102979295
-0.022136856 -0.1637472 -0.01633204 0.12250526 -0.037938617 -0.08317651 0.06914735 0.030754635
0.07103947 0.17759025 -0.015358157 -0.025182499 0.12787323 -0.24838234 0.19295754 -0.28165433
-0.06279724 -0.097573355 0.07772712 -0.05334735 0.062394835 0.26099545 0.14774589 0.14738809
0.25655863 0.23217595 -0.17029801 -0.017450484 -0.08423423 0.4000972 0.19220786 0.013800321
0.054602936 0.38482246 -0.010911682 0.013013483 0.03833306 -0.121281005 -0.3738355 -0.12015468
-0.018414052 -0.02651399 0.036649793 0.22453749 -0.05893719 -0.19090264 0.015670171 0.28248757
0.16913548 -0.15183917 -0.09315036 0.02117696 0.15108895 0.27136776 -0.08339734 -0.05138345
-0.24128851 0.07599416 -0.03183852 0.09142293 -0.013880302 -0.2533878 -0.13071261 -0.059309743
0.26571903 0.085906684 -0.068915844 0.061642118 -0.019017247 -0.021852123 -0.11753793 0.12175454
-0.25086108 -0.010175519 0.2665947 -0.20763059 0.076994896 0.061442535 0.14290097 0.005325298
-0.23357585 0.243213 0.057306763 -0.063904494 -0.09615435 0.09030892 -0.088193074 -0.11198002
0.29557577 0.10621391 0.12209002 0.2013414 -0.25079355 -0.04907539 -0.15653831 -0.31403494
0.018081596 0.12552348 -0.034771115 0.24267143 0.10076065 -0.07671344 0.023160817 0.051653814
-0.0072213896 -0.0019990178 0.017034693 0.06602851 -0.1437946 -0.10553617 -0.035149146 0.15119104
0.0072579654 0.24649271 -0.03796462 0.20152701 -0.2009579 -0.024838917 -0.033264056 0.14506783
-0.22398174 -0.15889993 0.37336725 -0.03305969 -0.25088012 -0.001168851 -0.16909283 -0.06538125
-0.14114755 -0.0573871 -0.1850344 -0.10784892 0.032904305 -0.06799657 0.19557503 0.12504053
-0.040848326 0.12578206 0.009076475 0.04026344 -0.3283485 0.09047103 0.1789491 -0.038237013
-0.041161325 -0.12949379 -0.19337697 -0.045060746 -0.07545942 0.14569803 -0.19017816 -0.13716784
-0.16991055 -0.054981478 0.22641642 0.49707773 0.2064485 -0.12590022 -0.16579947 -0.0067591653
0.011102788 0.12499058 0.087771535 0.21250647 -0.068505794 -0.11217245 -0.03510673 0.19109896
0.11527764 -0.23171973 0.21430086 -0.21076451 0.19354896 -0.029081251 0.018472802 0.0864015
0.038611922 -0.006026616 0.14023979 -0.33862138 -0.1647342 -0.0049418504 0.05856898 0.052045085
0.16419944 0.09524663 0.018565338 0.003869932 -0.04535284 0.01718012 0.20120049 0.23892654
-0.029155778 0.16603185 0.2479989 0.12618752 -0.16350275 -0.28891158 -0.16441952 -0.12834454
-0.07905323 0.16357845 0.052651115 0.18276507 -0.02602631 -0.15026197 -0.1466009 0.18581098
0.038868338 0.098635726 -0.27772474 -0.010496271 -0.16299507 0.12236993 0.0614653 0.11853595
-0.041737672 -0.10974664 0.012702479 0.23911622 0.03976401 -0.13657884 0.026557857 -0.00655329
0.023273041 -0.075695135 -0.0060700946 -0.14722411 0.11731722 -0.06863976 0.027728181 -0.021180894
-0.065050334 -0.23757981 -0.006784435 0.12040191 -0.35161173 -0.2538764 0.14922914 0.04725614

blocks.0.sa.heads.0.value.weight f4 [16, 64]
00000000: d96b 2a3d 4dc3 bebd 488b 82bd 0c3a c03d
00000010: ccfc a0bd 7c83 24be 2f5f 853d 9d69 fdbc
00000020: 1df4 863d 69cd 03bd 024b 03be dd48 92be
00000030: 916d 4e3b eacd fabb 86b1 f0bd 943c dfbc
00000040: 4f36 4bbe e73b 83bd 7d51 4abe e8e1 103b
00000050: d333 723d 7fe3 e23c f1a6 15bc d158 99bc
00000060: da29 913c 91f8 80bd 375d 4cbc 36b6 913d
00000070: 66f2 033d f3af 10be 45b6 713d 2876 513e
00000080: 394b 16be a0f1 6ebe d884 bc3d a5ed fabd
00000090: e83e e33d 97cb 263d 19b1 933c b764 f63d
000000a0: b46c 1ebe 1be2 a1bc 82bd 83bd 704c e53d
000000b0: 5d12 4dbd 4936 3e3c 45cb 853e 72b8 8abe
000000c0: 8081 bd3d 6b14 243d cd62 2fbc 70eb 1e3d
000000d0: b8ab a63d b751 97bb 5f51 9e3c 7378 d4bc
000000e0: 3e52 16bb b98e 883d 7404 733d bf9a 59bd
000000f0: 969e 0e3e fe20 e0bd 523d a03d a242 1f3d
00000100: 4dc1 9cbc 4447 79bd c32b 863d b305 48bd
00000110: d8aa f5bd 60c3 10be 5f4a 2fbc 6171 23be
00000120: 03e6 b3bd 6472 dcbc 7da1 4abe 24a7 743c
00000130: 78c0 0fbe 9a99 eb3d d1db 073e e62b 8bbd
00000140: 7de2 aebd 3fd2 6fbd c906 8dbb ff2f f23d
00000150: 31b3 f1bd 0f1d 683e 34c1 cdbc 448c 803d
00000160: b72d 0bbd d148 e43d dfaf ea3c ca9f d93d
00000170: bf7c 933d 34cd 5ebd 570c f23a 28e2 79bd
00000180: 1a1a e7bb ea13 373c 8504 eabb 8098 573d
00000190: dbde 1fbe 955f 1bbe 0270 913d 793f 403d
000001a0: 3f3c 763e b04a 353d a309 0f3e 30c8 0bbe
000001b0: 89ef d4bd 3f31 b7bd 6938 9b3d b591 1abe
000001c0: 34ea f43c 81ec f1bd b4a3 1f3d c732 8cbc
000001d0: 8db2 3ebe bc94 a3bd 0731 543e b225 93bd
000001e0: d45f d33d 2d7f f6bd 6ab9 8a3c 1a63 f3bc
000001f0: 1fb9 4abe 8239 a0ba ac32 3abc cf3e d03b
00000200: 2397 80ba 7a50 793c a263 0bbd f704 3bbd
00000210: 843d 15bd 0430 a7bc c3ea f3bc dba4 fc3d
00000220: 82ba afbd cad3 4d3d 1187 03bd b5e0 223c
00000230: 56ab 24bc b71d d83c 9571 153e 2445 52be
00000240: 2246 3d3d ceb3 073c ef61 b43d c0e0 9fbd
00000250: 679d f53d 5b19 0b3e f32c d33b f3c1 103c
00000260: 71c3 f53d 8d15 973d 7472 efba 958b c2bd
00000270: 57e1 23bd 113d c4bd b5b7 92bb 6949 05be
00000280: f3ef ddbd 3c58 03be e807 a23d 2f27 c1bc
00000290: e3aa 05bd 520d 38bc eb16 2cbe c1db 033e
000002a0: 5322 fc3d 5c31 e03d 3caa 3abe 8668 e1bc
000002b0: 57aa a1bd 6011 6cbd 5c4b fcbd d81b 8f3d
000002c0: 6084 b33d 41e0 c2bc 9c36 b4bd 8e1c fbbd
000002d0: 25ce cabd b48f a1bd 4b2c ad3d f711 883d
000002e0: e607 5fbc 17fa ffbd 27c8 80be 1ea5 93bb
000002f0: 8193 563d d508 34bd 6e46 f5bd 1eba 493e
00000300: 34e4 183e cb0a 1dbe 6647 a8bd 18ca d63b
00000310: d88a e9bd 681f a03d 5ba1 40bd 20a1 4d3d
00000320: 3c99 02bd fbd8 d5bc 107e 89bd 0633 4cbd
00000330: f5f7 bc3c 1b66 ab3d 0820 8c3b 7389 723d
00000340: b0b3 fd3d 094a febd 0fb7 6e3d a76f ef3d
00000350: c401 4b3c bdbc 493c 8397 343d 06fb c3bd
00000360: c3cc 0b3e c34c 88bd 525f 7a3d 572a 18be
00000370: f5a8 99bc 80ce bdbd 4bfe 12be 6c6e bc3d
00000380: ebb7 19bd 65c0 bc3d c2e0 21bc a576 3dbe
00000390: 9672 813c 8286 86bd c4e7 ae3c 3d97 ce3d
000003a0: 6268 cbbd a07d 8c3d 262b 83bc 4d46 8dbd
000003b0: fb77 aabe b10c 8a3d 9dc0 98bd ab7e 093d
000003c0: b3a6 5abe 93fc d9bd 19f2 603e 7cb9 023e
000003d0: ec1b a4bb 17a2 b33d 90e5 bfbc 4277 7bbd
000003e0: 82b7 fdbd 152c 543d afef a53d a300 90bd
000003f0: 4727 573c 56a4 24be d043 193e f6d8 503e
0.041606758 -0.093145944 -0.06374222 0.093860716 -0.07860717 -0.16065782 0.065122955 -0.03093415
0.0658953 -0.032178316 -0.12821582 -0.28571215 0.0031498412 -0.0076539414 -0.1175261 -0.027250566
-0.19844936 -0.0640791 -0.19757648 0.0022107307 0.059131455 0.02769637 -0.00913404 -0.018719109
0.017720152 -0.0629741 -0.012473396 0.07114832 0.03221359 -0.1412962 0.059011716 0.2045523
-0.14677133 -0.2333436 0.092050254 -0.12252358 0.11095983 0.040721502 0.018028783 0.120309286
-0.15471154 -0.019761136 -0.0643263 0.1119622 -0.05006634 0.011609622 0.26131645 -0.27093846
0.09253216 0.040058535 -0.010704708 0.03879875 0.081382215 -0.0046178955 0.01932591 -0.02593634
-0.0022937204 0.06667847 0.05933042 -0.053126093 0.13927683 -0.10943793 0.07824196 0.038881905
-0.019135142 -0.06085898 0.06551316 -0.04883356 -0.119954765 -0.1413703 -0.010698884 -0.1596122
-0.08784106 -0.026910014 -0.19788165 0.014932428 -0.14038265 0.115039065 0.13267447 -0.06795482
-0.08539293 -0.058550116 -0.0043037874 0.11825561 -0.11801756 0.22667335 -0.02511654 0.062767535
-0.033979144 0.11146701 0.028648315 0.106261805 0.07201528 -0.054394916 0.0018466812 -0.061006695
-0.007052672 0.0111741815 -0.007141652 0.05263567 -0.15612356 -0.1517318 0.07101442 0.046935532
0.2404642 0.04426068 0.1396852 -0.13650584 -0.1039725 -0.0894494 0.07579119 -0.15094645
0.029896833 -0.11812688 0.03897448 -0.017114056 -0.18622799 -0.07987353 0.20721827 -0.07184924
0.10321012 -0.120359756 0.016934115 -0.029710341 -0.1979718 -0.001222417 -0.01136462 0.0063551436
-0.0009810667 0.015216941 -0.034030564 -0.04565903 -0.03643562 -0.020408638 -0.029775029 0.12336131
-0.085804954 0.050250806 -0.03211123 0.00994127 -0.010050615 0.026381357 0.1459411 -0.20534188
0.046209462 0.008282615 0.08807742 -0.078065395 0.11992913 0.13583891 0.0064445673 0.008835304
0.12000168 0.07377157 -0.0018268363 -0.094992794 -0.040009823 -0.0958196 -0.004477466 -0.13016285
-0.10836782 -0.12826627 0.07911664 -0.023578255 -0.032633673 -0.011233645 -0.16805618 0.12876798
0.12311234 0.109469146 -0.18229002 -0.027515661 -0.07893818 -0.057633758 -0.12319061 0.06987733
0.08765483 -0.023788573 -0.087994784 -0.12261306 -0.099026 -0.07888737 0.08455714 0.066440515
-0.013612723 -0.12498873 -0.25152704 -0.0045057675 0.052386764 -0.043953735 -0.11976324 0.19699904
0.14930803 -0.15336148 -0.08216743 0.006554853 -0.114034355 0.0781849 -0.04702888 0.05020249
-0.031884417 -0.02610444 -0.06713498 -0.049853347 0.023067454 0.083690844 0.0042762794 0.059213113
0.12387788 -0.12416465 0.058280047 0.11691218 0.012390558 0.012313065 0.044089805 -0.09569363
0.13652329 -0.06655266 0.06112606 -0.14859901 -0.018757323 -0.092679024 -0.14354818 0.09200749
-0.037528913 0.09216384 -0.009880247 -0.1850229 0.01580171 -0.06568624 0.021350749 0.1008744
-0.09932019 0.068598986 -0.016011786 -0.068981744 -0.33294663 0.06740702 -0.07458613 0.033568066
-0.21352653 -0.10643878 0.21967353 0.12766069 -0.0050082114 0.087711506 -0.023424894 -0.06139303
-0.12388517 0.051799852 0.08102357 -0.070313714 0.013131923 -0.16078314 0.14967275 0.20395264

blocks.0.sa.heads.1.tril f4 [16, 16]
00000000: 0000 803f 0000 0000 0000 0000 0000 0000
00000010: 0000 0000 0000 0000 0000 0000 0000 0000
00000020: 0000 0000 0000 0000 0000 0000 0000 0000
00000030: 0000 0000 0000 0000 0000 0000 0000 0000
00000040: 0000 803f 0000 803f 0000 0000 0000 0000
00000050: 0000 0000 0000 0000 0000 0000 0000 0000
00000060: 0000 0000 0000 0000 0000 0000 0000 0000
00000070: 0000 0000 0000 0000 0000 0000 0000 0000
00000080: 0000 803f 0000 803f 0000 803f 0000 0000
00000090: 0000 0000 0000 0000 0000 0000 0000 0000
000000a0: 0000 0000 0000 0000 0000 0000 0000 0000
000000b0: 0000 0000 0000 0000 0000 0000 0000 0000
000000c0: 0000 803f 0000 803f 0000 803f 0000 803f
000000d0: 0000 0000 0000 0000 0000 0000 0000 0000
000000e0: 0000 0000 0000 0000 0000 0000 0000 0000
000000f0: 0000 0000 0000 0000 0000 0000 0000 0000
00000100: 0000 803f 0000 803f 0000 803f 0000 803f
00000110: 0000 803f 0000 0000 0000 0000 0000 0000
00000120: 0000 0000 0000 0000 0000 0000 0000 0000
00000130: 0000 0000 0000 0000 0000 0000 0000 0000
00000140: 0000 803f 0000 803f 0000 803f 0000 803f
00000150: 0000 803f 0000 803f 0000 0000 0000 0000
00000160: 0000 0000 0000 0000 0000 0000 0000 0000
00000170: 0000 0000 0000 0000 0000 0000 0000 0000
00000180: 0000 803f 0000 803f 0000 803f 0000 803f
00000190: 0000 803f 0000 803f 0000 803f 0000 0000
000001a0: 0000 0000 0000 0000 0000 0000 0000 0000
000001b0: 0000 0000 0000 0000 0000 0000 0000 0000
000001c0: 0000 803f 0000 803f 0000 803f 0000 803f
000001d0: 0000 803f 0000 803f 0000 803f 0000 803f
000001e0: 0000 0000 0000 0000 0000 0000 0000 0000
000001f0: 0000 0000 0000 0000 0000 0000 0000 0000
00000200: 0000 803f 0000 803f 0000 803f 0000 803f
00000210: 0000 803f 0000 803f 0000 803f 0000 803f
00000220: 0000 803f 0000 0000 0000 0000 0000 0000
00000230: 0000 0000 0000 0000 0000 0000 0000 0000
00000240: 0000 803f 0000 803f 0000 803f 0000 803f
00000250: 0000 803f 0000 803f 0000 803f 0000 803f
00000260: 0000 803f 0000 803f 0000 0000 0000 0000
00000270: 0000 0000 0000 0000 0000 0000 0000 0000
00000280: 0000 803f 0000 803f 0000 803f 0000 803f
00000290: 0000 803f 0000 803f 0000 803f 0000 803f
000002a0: 0000 803f 0000 803f 0000 803f 0000 0000
000002b0: 0000 0000 0000 0000 0000 0000 0000 0000
000002c0: 0000 803f 0000 803f 0000 803f 0000 803f
000002d0: 0000 803f 0000 803f 0000 803f 0000 803f
000002e0: 0000 803f 0000 803f 0000 803f 0000 803f
000002f0: 0000 0000 0000 0000 0000 0000 0000 0000
00000300: 0000 803f 0000 803f 0000 803f 0000 803f
00000310: 0000 803f 0000 803f 0000 803f 0000 803f
00000320: 0000 803f 0000 803f 0000 803f 0000 803f
00000330: 0000 803f 0000 0000 0000 0000 0000 0000
00000340: 0000 803f 0000 803f 0000 803f 0000 803f
00000350: 0000 803f 0000 803f 0000 803f 0000 803f
00000360: 0000 803f 0000 803f 0000 803f 0000 803f
00000370: 0000 803f 0000 803f 0000 0000 0000 0000
00000380: 0000 803f 0000 803f 0000 803f 0000 803f
00000390: 0000 803f 0000 803f 0000 803f 0000 803f
000003a0: 0000 803f 0000 803f 0000 803f 0000 803f
000003b0: 0000 803f 0000 803f 0000 803f 0000 0000
000003c0: 0000 803f 0000 803f 0000 803f 0000 803f
000003d0: 0000 803f 0000 803f 0000 803f 0000 803f
000003e0: 0000 803f 0000 803f 0000 803f 0000 803f
000003f0: 0000 803f 0000 803f 0000 803f 0000 803f
1.0 0.0 0.0 0.0 0.0 0.0 0.0 0.0
0.0 0.0 0.0 0.0 0.0 0.0 0.0 0.0
1.0 1.0 0.0 0.0 0.0 0.0 0.0 0.0
0.0 0.0 0.0 0.0 0.0 0.0 0.0 0.0
1.0 1.0 1.0 0.0 0.0 0.0 0.0 0.0
0.0 0.0 0.0 0.0 0.0 0.0 0.0 0.0
1.0 1.0 1.0 1.0 0.0 0.0 0.0 0.0
0.0 0.0 0.0 0.0 0.0 0.0 0.0 0.0
1.0 1.0 1.0 1.0 1.0 0.0 0.0 0.0
0.0 0.0 0.0 0.0 0.0 0.0 0.0 0.0
1.0 1.0 1.0 1.0 1.0 1.0 0.0 0.0
0.0 0.0 0.0 0.0 0.0 0.0 0.0 0.0
1.0 1.0 1.0 1.0 1.0 1.0 1.0 0.0
0.0 0.0 0.0 0.0 0.0 0.0 0.0 0.0
1.0 1.0 1.0 1.0 1.0 1.0 1.0 1.0
0.0 0.0 0.0 0.0 0.0 0.0 0.0 0.0
1.0 1.0 1.0 1.0 1.0 1.0 1.0 1.0
1.0 0.0 0.0 0.0 0.0 0.0 0.0 0.0
1.0 1.0 1.0 1.0 1.0 1.0 1.0 1.0
1.0 1.0 0.0 0.0 0.0 0.0 0.0 0.0
1.0 1.0 1.0 1.0 1.0 1.0 1.0 1.0
1.0 1.0 1.0 0.0 0.0 0.0 0.0 0.0
1.0 1.0 1.0 1.0 1.0 1.0 1.0 1.0
1.0 1.0 1.0 1.0 0.0 0.0 0.0 0.0
1.0 1.0 1.0 1.0 1.0 1.0 1.0 1.0
1.0 1.0 1.0 1.0 1.0 0.0 0.0 0.0
1.0 1.0 1.0 1.0 1.0 1.0 1.0 1.0
1.0 1.0 1.0 1.0 1.0 1.0 0.0 0.0
1.0 1.0 1.0 1.0 1.0 1.0 1.0 1.0
1.0 1.0 1.0 1.0 1.0 1.0 1.0 0.0
1.0 1.0 1.0 1.0 1.0 1.0 1.0 1.0
1.0 1.0 1.0 1.0 1.0 1.0 1.0 1.0

blocks.0.sa.heads.1.key.weight f4 [16, 64]
00000000: a240 dbbe ca55 1cbe 1d5e b6be 02c3 e93d
00000010: 6cd8 983e ab79 893e f030 3abe 0a0b d2bd
00000020: f68a 2b3e a841 ef3b e009 9d3d c216 4fbe
00000030: e7cc 4a3e b591 073f 17f8 493e 9807 e3bd
00000040: f852 c53e 5474 dbbd 0741 dcbd 263b 673e
00000050: e1bb 00be 995a 9cbe f40e b6be aa76 d13d
00000060: 1946 26be aaf6 a1bc b920 963e 6f03 36be
00000070: f26a 053e 93aa c7bd 20e7 51be 80fa 903d
00000080: 4f64 503e d15c 6e3e 2e72 b53c e017 fb3d
00000090: 0600 603e dd45 17be f6b9 82be 86f8 b4bd
000000a0: fc52 efbd be31 45be 7f37 6a3e 17bd b03d
000000b0: 5d1b c23c 715d ebbd 0fc5 dabd ac65 03be
000000c0: 4b2e 613e 2d6e c5bc abcb f6bd 0cfc 31be
000000d0: 09ea cb3d c600 0bbd c12c 62bd 0de5 683e
000000e0: b1d2 48be 3869 943d b484 d43d e776 313d
000000f0: f59f bebd 6251 0e3e e246 99be 5a27 91bd
00000100: 9149 85bc 169a 1ebe 7c33 503d f5e3 a0bd
00000110: 9003 bcbd 146b 873c 56f9 603d 0b6a 913e
00000120: 621f acbe d6b1 323c 225c 28bc 69c2 8d3d
00000130: b5b0 3bbd d10b 773d cf4d 133c 5d6f bbbd
00000140: 1577 1e3d 9c6b 703d f8ce e7bd ada3 00be
00000150: 02bf 92bd 8b6f 7fbe 879b 1b3e 762a b6bd
00000160: 5054 7f3d a744 82be 6a83 8fbd 8eca f7bc
00000170: 1bc1 c13e 3a04 1f3e 1011 723e b55c b63b
00000180: ef40 213e a4f8 1b3e 0599 e93d 8a51 a8bd
00000190: a57a 26be de06 ccbd be0c 20bd b864 a53e
000001a0: 3d59 34bb 8829 7f3e 2828 6abe 4a09 0a3e
000001b0: 9b74 46be 926d 88be 9421 bd3c 7e20 1b3e
000001c0: d408 35bc 32fc 753e 7fa1 ad3c b3ba 4a3e
000001d0: f004 ef3c cb04 213d 86f1 d3bd 5901 85be
000001e0: 8452 dabd 7054 45bc d0f4 143e dcdf 843e
000001f0: 2baa d93d 3575 673d 2bb6 4dbe fb3d d63e
00000200: 46b8 c23d ada0 8fbe 5c81 813e 3c91 0bbc
00000210: 366b 39bd e3c4 86bd 68b0 82bd a2b7 243e
00000220: 49c7 0cbe 8dc1 263d dcf7 0cbd 2d34 efbd
00000230: 5ecc 203e c8d5 11be 1178 03be 1125 1dbe
00000240: 2fa9 c8bd 94af 15be d92a b33d b6eb b7bd
00000250: 1d7c 3bbe 6e4d 8c3e c059 e13d 4a12 753e
00000260: 0ffc f9bc c294 5bbc bf8e e53c b8ef 91bc
00000270: f584 da3c 312c a3bd c341 293e e87e 33bd
00000280: ec73 92bd ac64 34be 713c a7be a505 333d
00000290: 7087 0a3e 1722 d2bd 625e fbbd c115 dabd
000002a0: 8032 14bd c0c7 f2bd fcfd b63e fcf0 413e
000002b0: be05 50be d8d3 ce3c 80cd 91be 8798 5cbe
000002c0: 9661 cf3d 7479 c83d 8964 ea3e 8631 753d
000002d0: 8a23 df3e 25a0 9c3e 43ff 85bd 8547 edbd
000002e0: 309f a3bd 04d8 623e dce4 0fbe 3760 86bd
000002f0: f34c bf3b 5da9 6bbd 36ca 693e ee94 a9be
00000300: 47e7 363d f373 453e 36ea 493d 3b84 87be
00000310: d723 16bc c963 71be 7049 2abe 1d7e 0bbe
00000320: 5939 e8bd 2663 07be 5fa7 5fbe 57f7 533d
00000330: bb38 cb3d d0b0 32bd 7831 763d c3c5 d13d
00000340: 6b08 31bd c691 943d e3a9 a43e 4724 b63d
00000350: bd66 91bd 2d5b 293e 783e 4e3e 2dd6 543e
00000360: 67bb cb3d f949 71bc 7076 61b8 92d9 df3d
00000370: 3e42 f4be bbd4 803d 11f5 2c3e 6b76 4a3e
00000380: 28d6 9a3d 527f c8be 84af 153d 1785 d33d
00000390: b563 9cbd e3f0 363d 09bd 01bc 358c 8cbe
000003a0: 8192 bd3c 6627 59be 30d8 d1bb f309 e53d
000003b0: ce5d 86bd 4193 cc3d 5ca6 b43e e8e3 533c
000003c0: fef7 30be 44ab 8ebe ea27 103e 2b25 4b3e
000003d0: 9e5a a83d 479a 2e3e 6c6a bf3c 72de 9bbd
000003e0: 8494 253d 5e65 873e 461f d8bc 6f04 813c
000003f0: 4fac 263e aeb6 473d eb14 54be 9224 d23c
-0.42822748 -0.15267101 -0.35618678 0.11414148 0.29852617 0.26850638 -0.1818273 -0.10256012
0.16752228 0.007301528 0.07667899 -0.20223525 0.19804727 0.52956706 0.19723545 -0.11085433
0.38539863 -0.10715547 -0.107545905 0.22581157 -0.1257167 -0.3053787 -0.35558283 0.102277115
-0.16237678 -0.019770939 0.2932184 -0.17774747 0.13029078 -0.09749331 -0.20498323 0.07079029
0.20350765 0.23277594 0.022149172 0.12260413 0.21875009 -0.14772744 -0.25532502 -0.088364646
-0.1168575 -0.19257256 0.22872733 0.08629816 0.023694688 -0.11492432 -0.10682117 -0.12831753
0.21990316 -0.024100387 -0.12050565 -0.17381305 0.09956748 -0.033936284 -0.055218462 0.22743626
-0.19611622 0.072466314 0.103768736 0.043326285 -0.09307853 0.13898233 -0.29936892 -0.07087584
-0.01627043 -0.15488467 0.05083035 -0.07855979 -0.09180367 0.016530551 0.054925285 0.28401217
-0.33617693 0.010906657 -0.010275872 0.069218464 -0.045822818 0.060314003 0.008990719 -0.091521
0.038687784 0.058696374 -0.11318773 -0.12562437 -0.07165338 -0.24944894 0.15196048 -0.088948175
0.062336266 -0.25443003 -0.07007487 -0.030247953 0.3784264 0.15528956 0.23639321 0.0055652508
0.15747426 0.15231568 0.11406139 -0.08218677 -0.16257723 -0.09962247 -0.039074652 0.32303405
-0.002751901 0.24918187 -0.22866881 0.13480106 -0.19380419 -0.26646096 0.0230873 0.15149114
-0.011049468 0.24021986 0.021195171 0.19797783 0.02917716 0.03931121 -0.10348801 -0.2597759
-0.1066027 -0.012044057 0.14546514 0.2595204 0.1062816 0.05650826 -0.20089023 0.41844162
0.095078036 -0.28052273 0.25294006 -0.008518513 -0.04526826 -0.06580522 -0.06381303 0.16085675
-0.13747896 0.04071193 -0.034416065 -0.116798736 0.1570296 -0.14241707 -0.1283877 -0.15346171
-0.09797894 -0.14617759 0.08748407 -0.08980505 -0.18309064 0.27402824 0.110034466 0.23932758
-0.030515699 -0.013402166 0.028022168 -0.017814502 0.026674727 -0.07967413 0.16528992 -0.0438222
-0.071510166 -0.17616528 -0.326633 0.043706555 0.13528228 -0.10260408 -0.122738615 -0.106486805
-0.036180973 -0.118545055 0.3574065 0.18939584 -0.2031469 0.0252475 -0.28477097 -0.2154256
0.10126035 0.0978879 0.45779827 0.059861682 0.43581802 0.3059093 -0.06542828 -0.11585907
-0.07989347 0.22152716 -0.14052147 -0.0656132 0.0058380305 -0.057534564 0.22831044 -0.33121437
0.044654157 0.19282512 0.049295627 -0.2646807 -0.009163818 -0.23573221 -0.16629577 -0.13622327
-0.11339063 -0.13221416 -0.21841191 0.051749554 0.0992293 -0.043625653 0.06010577 0.10242798
-0.04322092 0.072543666 0.32160863 0.08893638 -0.07099674 0.16538687 0.20141017 0.20784827
0.099478535 -0.014727109 -5.3754484e-05 0.1093017 -0.4770679 0.06290575 0.1689036 0.19771735
0.07560378 -0.39159638 0.036544338 0.10328119 -0.07636205 0.04466332 -0.007918605 -0.2745072
0.023141148 -0.21206436 -0.0064039454 0.11183538 -0.065608606 0.09989024 0.35283172 0.012932755
-0.17282102 -0.2786504 0.14077726 0.19838397 0.08220409 0.1705104 0.023366176 -0.076107875
0.04042484 0.26444525 -0.0263821 0.015749184 0.16276668 0.0487582 -0.20711105 0.025652204
