model.pth (torch, 78337 bytes, 30 tensors)

token_embedding_table.weight f4 [65, 32]
00000000: 33a6 c0bf cdd6 083f b589 2c3d 293f 54bf
00000010: 0d9d 10bf 5888 86be e4e0 33bf fac2 f9bd
00000020: e5d9 2dbf 3cdf 9cbf d943 88bf 7f07 603f
00000030: b36c 83bf 03c6 fb3d 48e9 1abf 24f5 b73f
00000040: 11ce 4b3f 479a afbe c480 133d 9d5a 883c
00000050: 93bb 643f 491e af3f 7e8d cdbe 30c1 5abe
00000060: 8d4d 38bf 6581 31c0 d620 423d 675d 97bf
00000070: 6685 e43d 916d 403f 6ce6 bc3d 7845 73bf
00000080: 4b7f 41be 6f70 aebf 3cce d8bf a85c 92bf
00000090: 5abf 0dbf 05dc 7abe 5c75 9b3e 50b3 be3e
000000a0: d232 a23d 6146 9fbf 602f b6bf 4a50 c4be
000000b0: eb19 82be fd8e 493f fe77 993f 4623 123f
000000c0: 51cc 953e 4ffb b9bf 4d34 6f3f 35f7 53bf
000000d0: 6f01 72bf db28 b9bf 277e 1bbf 6da4 c9be
000000e0: efc4 69bf 9a7d ef3e ae75 10be eab7 66bf
000000f0: 3bbe db3f 05a0 bb3f 132d 5bbf 9f72 c2bf
00000100: 739a f2be cf2c 67bf 2f58 a83f f5b9 4dbe
00000110: 3fd4 a83f f976 3fbf 298d 51bf 99de 153f
00000120: 44c7 0c40 10f6 0fbd df4d 0c3f db9d a33e
00000130: 4e08 4cbf 5c93 c23d ae58 c1bf 9ba2 f3be
00000140: 04b4 a6bd 4c43 a6bf cb9a 4bbf 54fc 803e
00000150: 55e8 773f c878 433e d330 64bf d284 e4be
00000160: 01a0 52c0 7e64 3abf 257c a93e e30a 25bf
00000170: 1566 8cbf c262 0d40 acc7 a2bf a3a6 b1be
00000180: f484 0ac0 8846 653f caf1 573f 4c86 7a3e
00000190: 73b8 153f 8e4a 8fbf a953 843f fd9b 773e
000001a0: 99c9 6cbf 1d40 d33e 5417 71bf 8ec0 8c3d
000001b0: 2083 d93d 8e11 ad3e c4f0 bebf a0f9 4abf
000001c0: 70e3 d6bd 4df3 abbe 25f4 8ebf f492 cf3e
000001d0: a704 c93e 36e4 1cbd 8acb cd3f bdaa d23d
000001e0: ee31 f83e 6278 1a40 1c04 0ac0 aa14 0240
000001f0: 2084 eb3e 9f30 4f3f 257e 003f e956 88bf
00000200: 6e1f 3ebe 1b22 373d 2fd2 0d3f 0017 c4bf
00000210: 5545 2f3d 0dc7 8e3f a8a4 663d 3837 6f3e
00000220: d0af a83e c46a 8bbf b1c3 9abe 2c3f febc
00000230: 2116 8a3f 59b1 32bf b789 89bc fa14 c63e
00000240: ef01 74c0 3c15 883f f671 4c3f a06b e93e
00000250: a90b 3bc0 451d e73f 58f2 bc3f b7df a1bf
00000260: f7e8 40bf 90e9 1cbe 0068 7abf 19e8 5cbe
00000270: 7976 d3be 3aeb f5bf ff37 523f 1670 2640
00000280: 4131 c7be f5c8 3fbf 4fac 45bf 1706 543f
00000290: 0210 333b 0207 b93f e797 69bf 4a98 9fbe
000002a0: d9c6 b53f 5698 e7be 9dee 3ebf 7593 9abf
000002b0: 65c6 893f 0e9b d83f ef17 2d3e 103d cdbf
000002c0: dc4e 223e f806 f23e 2c12 ddbe 91e0 c43d
000002d0: d706 0dbf 3111 d2bd e455 513c f74b 10bf
000002e0: a3e0 493e 5a66 15c0 826c 19bf 4fb1 743f
000002f0: 8bef 5bbe d039 b1be d5b7 cf3e 3a95 c33f
00000300: 068f 8ebf 3c3f 93bd cb28 4cbf 4ab9 38bf
00000310: b206 813f 8f3e 733e e105 873e 2844 1d3d
00000320: ad20 7f3f a42b a23f c805 cf3f cad1 c73d
00000330: 3d9f 283e a04f 31bf 49c6 f93d 56c9 1f3f
00000340: 2841 0a3e 2115 4cbf 0c7a 8ebb f156 aa3e
00000350: 6cfc bcbe 1c39 14be d80c 043f f214 0dbe
00000360: d8a8 8dbe 64f4 81be dabd a13f afb8 7dbf
00000370: e5cd 033f 94f1 8d3f bd40 83bf d9a4 1ebf
00000380: fd11 07bf d33a 73be 7cd6 78bf f067 833e
00000390: 5b6c c23f 4a51 adbf 5e4c 25bf 5e55 58be
000003a0: 7e65 5d3f 2270 64bf 1b0b 7a3e 93cd 9bbf
000003b0: e0c1 cebf 674c b63f d21d 923d 568d 56be
000003c0: 2443 ddbe 2029 083e 3afb a73e e554 e2bd
000003d0: 9c8e 823f a1ad 613e 6bfe 0fc0 79f7 f23f
000003e0: a141 3b3f 998d 9b3e f38c 21be 9543 f0bf
000003f0: 5d1f 9abf 00be c5be 0874 56be 997a 1840
-1.505072 0.5345276 0.042123515 -0.82908875 -0.5648964 -0.26275897 -0.7026503 -0.12195392
-0.67910606 -1.2255626 -1.0645705 0.8751144 -1.0267547 0.12293627 -0.6051221 1.4371686
0.7961131 -0.34297392 0.036011472 0.01664477 0.89348716 1.3681117 -0.40147012 -0.21362758
-0.71993333 -2.7735226 0.047394596 -1.1825379 0.11158256 0.75167185 0.09223637 -0.95027876
-0.18896215 -1.3628062 -1.6937938 -1.1434526 -0.55370104 -0.24497993 0.30362976 0.3724618
0.079198495 -1.2443353 -1.4233208 -0.38342506 -0.254104 0.7873381 1.1989744 0.57085073
0.29257444 -1.4529818 0.9343918 -0.82799083 -0.9453344 -1.4465593 -0.6073937 -0.3938326
-0.9131612 0.46775514 -0.14107391 -0.9012438 1.7167429 1.4658209 -0.8561565 -1.519123
-0.4738346 -0.9030275 1.3151911 -0.20090468 1.3189772 -0.7479091 -0.8185602 0.5854278
2.1996622 -0.035146773 0.5480632 0.31956372 -0.7970017 0.09500763 -1.5105188 -0.47584996
-0.08139804 -1.2989287 -0.7953307 0.2519251 0.96838886 0.19089043 -0.89137 -0.44632584
-3.2910159 -0.7280959 0.33102527 -0.64469737 -1.0968653 2.2091527 -1.2717185 -0.34697446
-2.1643648 0.8956075 0.84353316 0.24465293 0.5848457 -1.1194627 1.0338031 0.24180599
-0.92495114 0.41259852 -0.9417622 0.068726644 0.10620713 0.33802456 -1.4917226 -0.7928715
-0.10492599 -0.3358406 -1.1168257 0.40541804 0.39261362 -0.038303576 1.607774 0.10286472
0.48475593 2.4135976 -2.1565008 2.0325112 0.4599924 0.80933565 0.5019248 -1.0651523
-0.18566677 0.04471026 0.5539884 -1.5319519 0.04279073 1.1154495 0.056309372 0.23360908
0.32946634 -1.0891957 -0.30227426 -0.031035982 1.0788003 -0.6980186 -0.0167893 0.3868788
-3.812618 1.063148 0.7986139 0.45589924 -2.9225867 1.8055807 1.4761457 -1.2646397
-0.75355476 -0.15323472 -0.9781494 -0.21572913 -0.41301325 -1.921241 0.82116693 2.6005912
-0.38904765 -0.7491601 -0.7721605 0.8282179 0.0027322774 1.4455264 -0.9124741 -0.31170875
1.4201308 -0.4523341 -0.74582845 -1.207625 1.076367 1.6922319 0.16903661 -1.603426
0.15850395 0.47270942 -0.43177927 0.09613145 -0.5508856 -0.10257185 0.012776826 -0.56365913
0.19714598 -2.334372 -0.59931195 0.9558305 -0.21478097 -0.3461442 0.4056994 1.5279915
-1.1137397 -0.071897954 -0.79749745 -0.7215773 1.0080168 0.23754333 0.26371673 0.038395077
0.99659234 1.2669568 1.6173639 0.09756811 0.16466995 -0.69262123 0.12196023 0.6241659
0.13501418 -0.7971974 -0.004348045 0.33269456 -0.36911333 -0.1447491 0.515821 -0.13777521
-0.2766788 -0.25381768 1.2636063 -0.9910993 0.51486045 1.1089349 -1.0254132 -0.6197029
-0.5276182 -0.23752908 -0.9720228 0.25665236 1.5189317 -1.3540432 -0.6456965 -0.21126315
0.8648299 -0.892336 0.24418299 -1.2172111 -1.6152916 1.4242066 0.07134594 -0.20952353
-0.43215287 0.13296938 0.32808858 -0.110513486 1.0199771 0.2203889 -2.2499034 1.8981773
0.73147017 0.30381468 -0.15776424 -1.8770624 -1.2040821 -0.3862152 -0.209427 2.3824828

position_embedding_table.weight f4 [8, 32]
00000000: 5ee9 12c0 870c 493e 507a 4a3f d1c0 75be
00000010: 1868 25bf 1761 4ebe 177d 583f 094c 9dbe
00000020: 8287 b13f 326d 48bf 77a5 edbf bc7d 49bf
00000030: b3d2 fcbf 4aaf 68be 5f51 403f 4277 3f3c
00000040: dba1 993f 7c34 8d3f 5ed8 cf3f 0d85 74bf
00000050: 2cea 38bf ecf2 ebbf 9751 f5be e67f 993f
00000060: c6d3 81be c3e3 833f 53eb 0f3f e5b5 843f
00000070: 4cd6 d93f fa74 70bf 2ff4 80bf e418 5b3f
00000080: eaf0 c0be 7e62 8f3e e435 a03e 1581 243e
00000090: 4136 00bf bf56 0f3e 820a 0a3d b2a1 09c0
000000a0: 84a9 993f d65f b1bf 5244 9d3e a781 dabe
000000b0: bc2a 893b d810 3b3f b33f 35be 4081 92bf
000000c0: 76dc b1be d8c9 083f 1af9 93bf 68e5 9c3c
000000d0: 54b7 e7bf 90cf a0bf 8ae9 cebe e0d8 3e3e
000000e0: fd89 d0bd 08ec f23e 3787 88bf f084 47bf
000000f0: 9d54 cd3f 8e03 62bf f2e8 28bf 03d4 d9be
00000100: 6aa8 8a3f a037 e13e 74b1 adbd 8061 073f
00000110: d587 e13e 2778 ae3e 9a76 743f 3c8f e23f
00000120: 7214 373f 7d66 35bf c4e3 bc3e b9b6 08bf
00000130: ffd8 08c0 e541 4d3f e042 34bf 3416 3c3f
00000140: 31ed b63e b753 3cbf fb5a ad3d b3d4 e6be
00000150: 78af bf3e 70aa 9c3c 0d59 b6be 7097 dcbe
00000160: b093 523e 7c4f fe3e 7f8e fd3d 99f8 3abf
00000170: 0cf1 8dbe 2563 5a3f 2d9b 853f 2255 b43d
00000180: 4623 debb c728 0dbf cf70 a03e 6612 62bd
00000190: ea44 72bf 96cb 2b3f 015b 843f 288c 2b3e
000001a0: 5779 f03e 5ee9 563f dec9 1fbf 2256 ee3f
000001b0: 52b1 933d 902b 4b3f a29b e5bd 20ba 8dbf
000001c0: dbca 7cbf d26c fe3e bf00 92bf 5eda 693e
000001d0: abea 11bf a469 a1bf ce08 f2be d814 9c3e
000001e0: 1ce5 f9be 3477 88bf 3864 a4bf e73e 6bbf
000001f0: 1c9e 8bbe 7c71 c6be ace7 3bbf ec58 06be
00000200: 93e0 13bf 48b4 e23f c30e 813e ab3b 8abf
00000210: 938d 1abf 5f59 5c3e 2367 353d 253a 403f
00000220: 5641 5e3f 8694 033e a535 283c 73f5 ca3e
00000230: 0a14 593f 4066 05bf 5319 3f3d 051f 263e
00000240: 8af2 ae3f c75f a6be 51e9 53be b833 2bbf
00000250: 6fba 08be 54ef 823d 74a9 f83e 68ef 473f
00000260: d69a 343f 5f61 0e3f ba51 aebd 868e 353f
00000270: 7271 13bf 01c8 133e c543 703e 0377 b63e
00000280: d894 bebe c163 f53e ff02 f63e ee0f b13c
00000290: 405f 2cbf 569a 2d3e 2705 3abc dbe4 ebbc
000002a0: 36c4 17bf 8397 2f3f 2314 543f 6c99 013f
000002b0: 81f2 05be 173c 00bf 84ca a8be 125b 463d
000002c0: 91aa 22bf 6ccb 553f 5d24 ddbd b06f 8b3f
000002d0: cbe9 a7be 5b39 05bf de6c 1bbf 57e2 b4bf
000002e0: 1043 73bf d6c1 043d 75e4 22bf f126 80bf
000002f0: 4ad8 fe3d d9e6 773d bfc6 cebf 2967 5bbf
00000300: dc48 41bf 1b2c b6be 7fdb c6bf 98e5 bdbe
00000310: 303d c23d b73a 973e 83fb 0b3c e0da 733f
00000320: f314 983f ec0e 16bd 437b 933f 28d4 7c3f
00000330: a0e1 35be bf7d f83e a510 943f ce11 92bf
00000340: e3f5 4ebf b8c2 0a3f 76b1 063e b0b7 1b3f
00000350: 8a52 41bf 3b26 60bf 381b 0a3f 90aa 833e
00000360: de80 d2be 0009 d5bd 232d 053f 931e 863f
00000370: 4860 1bbf bfe4 36be 3c57 94bf 28e3 67bf
00000380: bdaa 4e3c abfc 2d3f 1e55 7a3d 1863 dd3c
00000390: 5268 173f b4b4 46bd 3c08 6d3f 6869 0740
000003a0: 0115 393e 02f5 bfbe 51db 45bf ab2c 973f
000003b0: 5a9d 0dbf cedb e3be dec4 f13e feb8 b73e
000003c0: 00f2 f8be b62b c2be 656c b2bd 85b0 75bf
000003d0: 68c2 c23e 5a49 53bf 3df1 1d3f 5d94 01c0
000003e0: 4fb7 b0bf b63c aebf c974 04bd f3e5 3cbf
000003f0: 37aa 4abf 65e0 a6be 1139 bdbf 7178 e03d
-2.2954936 0.19633685 0.79092884 -0.23999335 -0.6461196 -0.20154224 0.8456587 -0.30722073
1.3869479 -0.7829162 -1.8566121 -0.7870748 -1.97518 -0.22723117 0.7512416 0.011686148
1.2002519 1.1031642 1.6237905 -0.9551552 -0.7223232 -1.8433509 -0.4791381 1.1992157
-0.25356883 1.0303882 0.5621845 1.036801 1.7018523 -0.9392849 -1.0074519 0.85584855
-0.37683803 0.2800483 0.31291115 0.16064866 -0.50082785 0.13997935 0.033701427 -2.150494
1.2004857 -1.3857372 0.30716187 -0.42677042 0.0041860025 0.73072577 -0.1770008 -1.1445694
-0.3473851 0.5343299 -1.1560395 0.019152358 -1.8102822 -1.2563343 -0.4041255 0.18637419
-0.10182569 0.47445703 -1.0666264 -0.7793722 1.6041447 -0.88286674 -0.65980446 -0.42544565
1.0832646 0.4398775 -0.08481112 0.5288315 0.44048944 0.34076044 0.9549347 1.7699962
0.7151557 -0.7085951 0.3689252 -0.5340381 -2.1382444 0.8017867 -0.70414543 0.7347138
0.35727838 -0.7356524 0.08464619 -0.45084152 0.3743856 0.01912424 -0.35614815 -0.43084288
0.20564151 0.49670017 0.123806946 -0.7303558 -0.27722967 0.8530753 1.0437981 0.088053
-0.0067791073 -0.55140346 0.31336066 -0.055193327 -0.94636405 0.6710752 1.0340272 0.16752684
0.46967575 0.8394984 -0.624174 1.8620036 0.072115555 0.79363346 -0.11211325 -1.1072426
-0.9874703 0.49692398 -1.1406478 0.22837207 -0.569987 -1.2610364 -0.47272342 0.30484653
-0.4880761 -1.0661378 -1.2843084 -0.91892856 -0.27269065 -0.38758457 -0.7340038 -0.13119859
-0.5776455 1.7711267 0.25206575 -1.0799459 -0.60372275 0.21518467 0.044287812 0.7508872
0.86818445 0.12849626 0.010266696 0.39640388 0.847962 -0.52109146 0.04665501 0.1622277
1.3667767 -0.32494947 -0.20694472 -0.6687579 -0.13352369 0.063933045 0.48566782 0.7809968
0.7054876 0.55617326 -0.08511682 0.709206 -0.5759498 0.14431764 0.23463352 0.35637674
-0.37222934 0.4792767 0.4804916 0.021614041 -0.6733284 0.16953406 -0.0113537675 -0.02879565
-0.5928377 0.68590564 0.82843226 0.5062473 -0.13080789 -0.5009169 -0.32967007 0.048426695
-0.63541514 0.8351352 -0.10797951 1.0893459 -0.32795557 -0.5204064 -0.60712993 -1.4131573
-0.95024204 0.03241142 -0.6362985 -1.0011884 0.124435976 0.060522888 -1.6154402 -0.85704285
-0.755018 -0.35580525 -1.5535735 -0.3708923 0.09484327 0.29536983 0.008543852 0.9525585
1.1881393 -0.036635324 1.1521991 0.98761225 -0.1776185 0.48533437 1.156758 -1.1411684
-0.80843943 0.5420337 0.13153633 0.6082716 -0.7551657 -0.87558335 0.5394778 0.25716066
-0.41113943 -0.10402107 0.52022 1.047808 -0.6069379 -0.17860697 -1.1589122 -0.9058099
0.012613949 0.67963666 0.06111633 0.02702479 0.59143555 -0.048512176 0.9259069 2.1158085
0.18074419 -0.37491614 -0.77287775 1.1810507 -0.55318224 -0.44503635 0.4722051 0.35883325
-0.4862213 -0.37923974 -0.08712081 -0.9597247 0.38038945 -0.825338 0.61696225 -2.0246804
-1.3805941 -1.3612278 -0.032337938 -0.73788375 -0.7916598 -0.32593074 -1.478304 0.109604724

blocks.0.sa.heads.0.tril f4 [8, 8]
00000000: 0000 803f 0000 0000 0000 0000 0000 0000
00000010: 0000 0000 0000 0000 0000 0000 0000 0000
00000020: 0000 803f 0000 803f 0000 0000 0000 0000
00000030: 0000 0000 0000 0000 0000 0000 0000 0000
00000040: 0000 803f 0000 803f 0000 803f 0000 0000
00000050: 0000 0000 0000 0000 0000 0000 0000 0000
00000060: 0000 803f 0000 803f 0000 803f 0000 803f
00000070: 0000 0000 0000 0000 0000 0000 0000 0000
00000080: 0000 803f 0000 803f 0000 803f 0000 803f
00000090: 0000 803f 0000 0000 0000 0000 0000 0000
000000a0: 0000 803f 0000 803f 0000 803f 0000 803f
000000b0: 0000 803f 0000 803f 0000 0000 0000 0000
000000c0: 0000 803f 0000 803f 0000 803f 0000 803f
000000d0: 0000 803f 0000 803f 0000 803f 0000 0000
000000e0: 0000 803f 0000 803f 0000 803f 0000 803f
000000f0: 0000 803f 0000 803f 0000 803f 0000 803f
1.0 0.0 0.0 0.0 0.0 0.0 0.0 0.0
1.0 1.0 0.0 0.0 0.0 0.0 0.0 0.0
1.0 1.0 1.0 0.0 0.0 0.0 0.0 0.0
1.0 1.0 1.0 1.0 0.0 0.0 0.0 0.0
1.0 1.0 1.0 1.0 1.0 0.0 0.0 0.0
1.0 1.0 1.0 1.0 1.0 1.0 0.0 0.0
1.0 1.0 1.0 1.0 1.0 1.0 1.0 0.0
1.0 1.0 1.0 1.0 1.0 1.0 1.0 1.0

blocks.0.sa.heads.0.key.weight f4 [8, 32]
00000000: 8eea 533e 7d95 39bd 72ce c1bd 9a3d 56be
00000010: 4c54 243e 2b3b d43d 0ca2 66be 7857 573e
00000020: 62e4 933d 1e4c 593e 6815 da3e a907 063e
00000030: 2117 603e d071 bcbe f8b4 863e dca0 43be
00000040: 3bd7 1dbe 4169 dd3c 4bb1 263e de6d 7ebe
00000050: a35f aebd e710 6d3d 7870 1dbe f09d bebd
00000060: 580d bcbe 5bc0 b1bc e5d9 883c b845 163e
00000070: 443e a4be 1844 3dbe b930 d73d ee62 32bc
00000080: 1d02 a9bd a5f3 8bbc 2408 f0bb c607 8dbd
00000090: 1dd9 cebd 7103 68bd 0e3d ab3c 7c21 453e
000000a0: fa41 963c d250 f13d 8cbd 073e 23fc 4ebe
000000b0: aeae e43d acb7 0b3e 06f1 2c3e 2bf5 e43d
000000c0: 2fee fdbd 91bf 46be 03fa b33d 8462 20be
000000d0: 02e1 b73c 0a52 0b3e 7591 07be 100e 0ebc
000000e0: 71fc a53e 887d eb3c 7cc9 5a3e c408 553e
000000f0: 390c 67be ee70 0b3c d486 74bb efd7 82bc
00000100: 4a54 263e e593 b53b c141 65bd 3b8f 92bd
00000110: ac3c 62be 10da 6a3d 879e b03c 259a 09be
00000120: cda8 83bd 538c 873e e6ed 863e 8b68 1ebe
00000130: 27c5 573e 097d 29be 860c 1f3d e950 7e3e
00000140: 57e5 4ebe 2500 c9bd a3df 483c 08e9 f339
00000150: 32d6 a3bd ab95 6d3d d7d2 d7bd 1999 77be
00000160: af74 60be 7f21 d73c bf88 b6be 2e42 8b3e
00000170: d3a0 ab3d caa1 43be f3f9 03be d0fe 423d
00000180: 1044 66bd 482e 6f3d 342d 9fbd 3b35 223e
00000190: a85f cabd 0229 383d 5db3 5fbd 1625 a3bd
000001a0: aa5e 013e 3a43 803b a3bf 63bd 0438 89be
000001b0: 2e0c abbd 0079 963d 4512 cabe e64b 90bd
000001c0: 2fac 00be a434 ab3e 60ef 523d 7f25 9cbe
000001d0: 3c44 83be 903f da3c dd59 073d 4b77 a63e
000001e0: f75f 023e d907 173e b08b 11bd b868 873c
000001f0: 8d93 953e 9a98 dcbd 203f 853e 0d0f a43e
00000200: 78a8 a53e 8780 6dbe f9ae 2b3e 2cdc acbe
00000210: 07ff 883d e5b0 d2bd ba70 aebd bda8 1e3d
00000220: 934d 12be 3f8a b53d 4f38 1dbd b960 a5bd
00000230: 5a43 b9bd b107 4dbe acb7 56bb 3179 b23c
00000240: 27d2 6dbd 66c6 89be 6961 86bd 2a44 17be
00000250: 0e0c 0b3e e0d6 36bd bfdb fb3d ab01 a83c
00000260: 883d c73d 9428 6ebe dc73 653d 1ee9 d8bd
00000270: b928 4b3e 4cbb aebe d851 60be 764e a03e
00000280: 97d8 13be 0483 873d d76e 2bbe 8c11 bcbd
00000290: 6f4e 403e 31e6 c5bc e3dc 04be 5e51 883c
000002a0: ac38 6c3e b4e1 35be 55d1 ae3d c7a1 203d
000002b0: 51e8 0c3e 2e8d 44be 4c1e b43e 9331 ae3d
000002c0: 38d4 db3d d51b 95be 765c 6abe ac94 4d3e
000002d0: f997 653e 5045 013e 491a 333e cff8 e3bd
000002e0: 38d4 10be e416 f1bc cb36 6dbe 6884 1d3e
000002f0: 3883 ccbc 3f61 873e 78a4 2dbe f474 1cbe
00000300: aa30 463e 04b8 bfbe 7951 12be 4349 a33d
00000310: 06c2 04bc b4bc a1be 7908 623e 73d9 01bc
00000320: e30f 6d3d 637d 3abe 2876 66be 2ca0 c3be
00000330: a8f0 953d fa21 eeb9 b6a6 633e 1d4e 88bd
00000340: f2ba 723d d3b1 c1bd 19b4 21be cdc4 0ebc
00000350: f9e5 113d 22fe b5bd 471a 9ebd 3012 6d3d
00000360: ebcc 27be 93e3 2f3e 4cb3 a2bb 456d 43be
00000370: 821a d53e ae2d 69bd 6608 d53d 968f 913e
00000380: 84e3 f93d 35f4 95bd 8394 1e3e 3a85 b6bd
00000390: 8edb 4cbd 45bd 7a3c 9c14 783e 017a 85bd
000003a0: 228a f73d a1f2 b2bc 6406 f9be 8b6b 023d
000003b0: df56 54be 4b80 ef3d 49a3 843e a74b 3e3e
000003c0: 49d4 af3e 52a1 5cbe 39f2 83be 16f5 1c3d
000003d0: 927e 01be 15f8 34be e53a c53d d45c 883b
000003e0: d40f 21bd b8ae e93d 326b 4cbd 6639 0e3d
000003f0: 07b2 853e 7ef6 c9bd cdc5 2c3e 6df3 39be
0.20694944 -0.04530858 -0.094632044 -0.20921937 0.16047782 0.10362848 -0.22522753 0.2102946
0.07221295 0.21220443 0.42594457 0.1308886 0.21883823 -0.36805582 0.26309943 -0.19104332
-0.15414135 0.027027728 0.1627857 -0.24846599 -0.08514335 0.057877447 -0.15374935 -0.09307468
-0.3672893 -0.021698168 0.016705463 0.14675033 -0.32078755 -0.18483007 0.1050734 -0.0108878445
-0.08252356 -0.017083952 -0.007325189 -0.06886248 -0.10100005 -0.056643907 0.020903137 0.19251055
0.018342007 0.117829934 0.132559 -0.2021337 0.1116613 0.13644284 0.16888818 0.111795746
-0.123989455 -0.19409014 0.0878792 -0.1566258 0.02244616 0.13605514 -0.13239081 -0.008670345
0.3241916 0.028746381 0.21365923 0.20804125 -0.22563256 0.008510811 -0.003731181 -0.015972106
0.16243091 0.005541312 -0.05597091 -0.07156225 -0.22093457 0.057336867 0.021559967 -0.13437708
-0.064286806 0.26474246 0.26353377 -0.15469567 0.21071301 -0.16551603 0.038830303 0.24835552
-0.20204674 -0.09814481 0.01226035 0.00046522194 -0.07999839 0.058004063 -0.105382614 -0.24179496
-0.21919511 0.02626109 -0.35651204 0.2719893 0.08380284 -0.19104686 -0.12888317 0.04760629
-0.056217253 0.058393747 -0.07772294 0.15840618 -0.09881526 0.044960983 -0.054614414 -0.07966058
0.12633768 0.003914264 -0.05560268 -0.2680055 -0.083519325 0.07347298 -0.39467064 -0.070457265
-0.12565683 0.334386 0.051497817 -0.30497357 -0.25637996 0.026641637 0.033044685 0.32512888
0.1273192 0.14749087 -0.035533607 0.016529426 0.29214135 -0.10771294 0.26024723 0.32042733
0.32355094 -0.2319356 0.16765966 -0.33761728 0.066892676 -0.10287646 -0.08517595 0.03873514
-0.14287405 0.08864259 -0.03838378 -0.08075089 -0.090460494 -0.20022465 -0.0032763286 0.021786304
-0.058061745 -0.26909178 -0.06561548 -0.14772096 0.13578817 -0.044638515 0.122977726 0.020508608
0.09728533 -0.23257667 0.056018695 -0.105913386 0.19839753 -0.3412727 -0.21906221 0.3130986
-0.14438091 0.06616786 -0.16741501 -0.09183034 0.1877992 -0.024157615 -0.12974887 0.016640361
0.23068494 -0.1776188 0.08536021 0.039216783 0.13760497 -0.19194481 0.35179365 0.08505549
0.10733837 -0.29122797 -0.22886834 0.20076245 0.22421254 0.12624097 0.17490496 -0.11131441
-0.14143455 -0.02942986 -0.23165433 0.1538254 -0.024964914 0.2644138 -0.16957271 -0.15278989
0.19354501 -0.3744508 -0.14288892 0.07972958 -0.008102899 -0.31589282 0.22073545 -0.007925379
0.05787648 -0.18211894 -0.2250601 -0.3820814 0.07321292 -0.00045420212 0.22231564 -0.06655524
0.059260316 -0.094577454 -0.15791358 -0.008713913 0.03561971 -0.088863626 -0.07719856 0.057878673
-0.16386764 0.17176656 -0.0049652215 -0.19084652 0.41621786 -0.05692833 0.104019925 0.2842986
0.12201598 -0.073219694 0.1548634 -0.0891213 -0.05001407 0.015303914 0.24226612 -0.06517411
0.120868936 -0.02184421 -0.48637688 0.031840842 -0.20736264 0.11694392 0.25905827 0.18583547
0.34341648 -0.21545914 -0.2577074 0.03831967 -0.12645939 -0.17672761 0.09630374 0.0041614566
-0.039321736 0.11410278 -0.049906917 0.03472271 0.26112387 -0.09861468 0.1687233 -0.18159266

blocks.0.sa.heads.0.query.weight f4 [8, 32]
00000000: b3e5 453c dbaa f93d 9a5e b03d 11eb 1fbe
00000010: 392e 843e 8cff 3e3e 0e5e 37be 22a2 3a3e
00000020: 8cef dabd 18b4 953e d44b fabd 9ab4 623e
00000030: 627a 01bd ef5d aa3d f95b 7bbe 5556 59be
00000040: 48e7 ef3d b094 e8bd 7632 e83d 55dc 61be
00000050: 0d61 fa3c e910 9ebe dda8 623e 6e90 c4be
00000060: ea7f 93be 6dda 663e d7ca 57be 48d1 c13c
00000070: 0242 3abd b074 fe3d 98f2 68be 8536 54be
00000080: 9734 12be ffcf f3bd fb87 1c3e b399 8e3e
00000090: 5747 c9bc 0f86 a4bd b205 8abd e508 89bd
000000a0: 3269 fdbc 24ba b93d 0288 3fbe 7e42 2f3e
000000b0: 6696 913e b531 453e f52d 0fbd a076 16be
000000c0: 8c0b 1d3e 5090 8b3e d216 93be 8867 3b3e
000000d0: 7caf 463d 5c00 edbc 553c eebc b6b8 82bc
000000e0: 9682 21be 5654 a73d 595e 843c b7e7 efbd
000000f0: b574 28bd ef93 8cbc 2dfb a93c 963a 833d
00000100: fbbc 75bd b12a 0ebd 9788 c3bd 7748 c4bd
00000110: d8f8 7bbd 82ed 5cbd 5155 85bd 6d0d 1d3e
00000120: bc1b d83d 6012 e4bd b4b0 473e a11c 463d
00000130: 02d4 94bd e573 0d3d 53a0 c9be 0293 c6be
00000140: 5ed6 78bd ac2c 2b3e 6430 be3e d7b1 39bd
00000150: bffd d3bd b082 40be 2b80 693d 89fe c1bd
00000160: a487 5abe f30e 9a3c 69a9 38be c101 ca3e
00000170: d7a0 ff3c 37a5 463d a3d4 1f3e 8f64 1d3e
00000180: 4c9a ce3e 818d c2be 2917 bd3d b1b3 643e
00000190: 06e8 8a3d d5b8 d7bd 4f1d 59be 0f2e 5fbe
000001a0: 23ac 27be 9a5f b2bd c68b 24bc f006 09be
000001b0: 492e 9e3d 0bf8 043e 05cd 35bc 2f75 8a3e
000001c0: 0e41 76bc 8549 90be c39f f4bc 95fb be3c
000001d0: 42f8 85bd 00fd 293d ea23 1abe 3c40 34bd
000001e0: 892a 22be c852 973e 5733 2bbe 8067 563c
000001f0: a5e3 1f3e 0e78 8a3e dc02 423e ffe9 703e
00000200: d216 943e 3a02 7abe 6ca3 1e3e 4cb8 29be
00000210: 1883 10be 18a8 acbe dd12 96bd 0024 1abe
00000220: 4120 f03d b332 ad3c b3a6 943e 6643 333e
00000230: 9e6d 25be 45af c03d 9783 9fbe fa3c 9a3d
00000240: f188 cc3d 9996 f33d 11d3 053d 50c0 133e
00000250: c5f5 9dbc 3cf9 9bbd cc94 393e 6530 b5bc
00000260: 5d89 163d 780e 5b3c 8ae6 2cbe 5841 b83d
00000270: 972c 59be 0984 05be 827b 08be 1fbc 4c3e
00000280: 31c5 b0be ad9c a13e c0f4 6ab7 b297 2d3d
00000290: 03a4 e7bd eb80 f13e 059f bf3e 0138 833e
000002a0: 34ef 83bd 7fb2 30bd 14f4 1bbe 6ba1 0e3e
000002b0: efc6 4cbe f659 63bd bbbf 1c3d a2ab a13d
000002c0: 781a 77be 3196 c63e cbb4 c03e f4ba 823e
000002d0: 79b2 f8bd 4b70 31be c856 fcbd 7a82 96bd
000002e0: 909a 71bc f7de 3ebe e851 193d dc9a e6bd
000002f0: 9b88 e8bd 6b4a a9bb 7294 0f3d 357f 9bbd
00000300: 7175 e03d a431 09be e826 033e 95a4 10bd
00000310: fea8 073e 16d0 06be 3182 943e 357a 57be
00000320: 7e25 0ebe c20b cfbd 2f7e cfbd cf91 23be
00000330: 0b76 a8bd 9bf3 67be d09a 36bc 7c9d b2bd
00000340: f173 97be 0b07 893d 9b1d fa3d b046 63bd
00000350: 9c0e 60be 98a6 883d 48c8 16be 5da3 94be
00000360: bc7a 723e 55a8 9dbc 6174 0a3c c075 1f3e
00000370: 3d74 3cbe 886d 83be 5f28 8c3e 9d5e 8c3e
00000380: 8b66 053e 16f1 bb3d 9555 4f3d 4abd 06be
00000390: a83d 5e3d 3e69 3abd 98ce 3d3e d863 e33d
000003a0: 905d 5abd 659e b3bb fa4d 423e b638 babd
000003b0: 5f5b f23c 4ddb 24be 0e25 993d b911 9dbd
000003c0: 4db1 01be c5db df3d 0058 123e 8d11 ae3d
000003d0: 638a c6be 0631 9c3e 9a97 f8bd c560 d73d
000003e0: a72a 713d 02bc 053e 4ce8 333e 98de 6ebe
000003f0: 8108 1d3e 728a 89be 4baa d73d 9a82 5e3e
0.01207869 0.12190791 0.08611794 -0.15617014 0.25816515 0.18652171 -0.17906973 0.18225911
-0.10690221 0.29238963 -0.12221494 0.22139207 -0.031610854 0.08318698 -0.24546804 -0.2122434
0.11714035 -0.11356485 0.1133775 -0.22056706 0.030563856 -0.30872276 0.22134729 -0.3839144
-0.28808528 0.2254426 -0.21073471 0.023659363 -0.045473106 0.124246 -0.22748792 -0.20723923
-0.14277874 -0.119049065 0.15286247 0.27851638 -0.02457015 -0.08033382 -0.067393675 -0.066911496
-0.03093395 0.09068707 -0.18704227 0.17115209 0.28435057 0.19257243 -0.034955937 -0.1469369
0.15336436 0.2725854 -0.28728348 0.18301213 0.0485072 -0.028930835 -0.029081503 -0.015957218
-0.15772471 0.08170383 0.01615827 -0.11714118 -0.041126925 -0.017160384 0.020749653 0.06407659
-0.05999468 -0.034708682 -0.09547537 -0.09584134 -0.061516613 -0.053937443 -0.065104134 0.15337153
0.10552165 -0.11136317 0.19501 0.048367146 -0.07267 0.034534354 -0.3938013 -0.38784033
-0.06075131 0.1671626 0.37146294 -0.045335617 -0.103511326 -0.18799853 0.057006996 -0.09472377
-0.21340805 0.018805956 -0.18033375 0.39454463 0.031204624 0.048497405 0.15608458 0.15370391
0.40352094 -0.37998584 0.09232933 0.22334172 0.06782536 -0.10533301 -0.21202587 -0.21794914
-0.16374259 -0.08709641 -0.01004309 -0.13381553 0.07723672 0.12985246 -0.011096244 0.2704253
-0.015030159 -0.2818109 -0.029861337 0.023313323 -0.06541492 0.041501045 -0.15052763 -0.04400657
-0.15836538 0.29555345 -0.16718803 0.0130862 0.15614183 0.2704472 0.18946403 0.23526762
0.2892366 -0.24414912 0.15492028 -0.1657421 -0.14112508 -0.33721995 -0.07327817 -0.15052795
0.11724902 0.02114234 0.2903343 0.17506179 -0.16155097 0.0940843 -0.31155083 0.075311616
0.09987057 0.118939586 0.03267199 0.1442883 -0.019282231 -0.07615897 0.18123168 -0.022117803
0.036752094 0.013370149 -0.16884819 0.08996838 -0.21208416 -0.13038649 -0.13328364 0.19993638
-0.34525445 0.31564847 -1.4004472e-05 0.042380996 -0.1131058 0.4716867 0.3742601 0.25628665
-0.06442109 -0.043138977 -0.15229827 0.13928764 -0.19997762 -0.055505715 0.038268786 0.078940645
-0.24131191 0.38786462 0.37637934 0.2553326 -0.12143416 -0.17327993 -0.1232124 -0.07349105
-0.014746323 -0.18639742 0.037431628 -0.11260006 -0.113541804 -0.005166342 0.035053678 -0.07592622
0.109599 -0.13397843 0.1280781 -0.035313208 0.13248059 -0.13165316 0.29005578 -0.21042712
-0.1388149 -0.101096645 -0.101314895 -0.1597359 -0.0822564 -0.22651522 -0.011145309 -0.08721444
-0.29580644 0.066907965 0.12212678 -0.055487335 -0.21880573 0.066724 -0.14724839 -0.29030886
0.23679632 -0.019245306 0.008450598 0.15572262 -0.18403716 -0.25669503 0.2737455 0.27415934
0.13027398 0.09176843 0.050618727 -0.13158146 0.05425802 -0.045510523 0.1853584 0.11103028
-0.053311884 -0.0054815286 0.18975058 -0.09092848 0.029584585 -0.16099282 0.07477771 -0.07669396
-0.12665291 0.109305896 0.14291382 0.08499441 -0.38777456 0.30506152 -0.12138291 0.10516504
0.058878567 0.1306 0.17569083 -0.233271 0.15335275 -0.26863438 0.10530528 0.21729508

blocks.0.sa.heads.0.value.weight f4 [8, 32]
00000000: dc10 66bd 0324 e93d 93e5 31be a180 953d
00000010: 11ea a53d 7122 16be d790 573d 1dd8 96bd
00000020: 560b 913c 41b8 cdbc 8ab8 7ebe bb81 8d3d
00000030: 87e8 96bc 60a9 76bd 65cc 173e 7f1c 903d
00000040: aaea 0a3e 4f06 fbbd 8dd3 8fbe 238c b03e
00000050: 91c1 95be 7807 ef3d 53c1 ccbd 936f b5bd
00000060: 32bc b93d cf4b 183e a635 933e 3ad0 08be
00000070: e662 43bb dccd 18be 3853 ba3d 20d8 363c
00000080: 6a41 933c 2a1d 233e f2f7 57be 8d68 563b
00000090: a820 93be 7af7 883d d4a2 f13d b14b e6bd
000000a0: 3aeb b4bd a14d 033e 6049 56be a39a 21be
000000b0: 0169 ec3d dec9 113e d3f4 1d3e 0927 3abe
000000c0: df67 9abc 9654 723d eddd ebbc 27aa a13d
000000d0: 1b96 85bd ea33 193e 241c 263d 1210 f4bd
000000e0: 7d48 8c3e 89d1 95bd be85 223e 1875 0dbd
000000f0: 945a 9b3d 99fc c73e 64c6 c83c 208c f3bb
00000100: 1c3c 1bbe d018 60be c984 13bd 526a 1cbe
00000110: 7954 99bd 8861 c2bb fc3c b8bd b5e5 c6bd
00000120: b306 20bc fc03 b03d 71c4 173e 9568 5fbe
00000130: 4ad4 2f3e 24f9 033d b73e 8ebe 7dd6 04be
00000140: 1ac8 b5bd 6ed0 30be 44d0 0f3e e1ac 07be
00000150: 1313 4a3e 0d99 ab3d a542 92be acbf 523e
00000160: e49a 7c3d 3abd a03d c976 afbb 195d c6bd
00000170: 51bd 693e 726c 23be f977 2b3d 349d 57be
00000180: 4e8a 55bd 71ff eebc b719 343e 1785 18be
00000190: 8ac4 8bbd c862 133e 20c5 0c3e 7d1f 1ebe
000001a0: a007 a43d 46e2 8dbd 5c56 1e3c 6a6d 113e
000001b0: ef0e 303e 3a8b b53d 5aeb 27bd 87ee 8b3e
000001c0: 5a53 a53d ffa4 12be bc71 6d3e 5015 f4bd
000001d0: a1dc e93d 520f 9dbd a1e0 b3bd 74f8 78bd
000001e0: 77de 27be a9dd 933d 2907 5dbe f622 c53e
000001f0: 33e4 0a3d 1b8c 6f3e 9af0 183e fde2 f23c
00000200: e280 26be 0843 fa3c 07b1 10bd 25cd c33e
00000210: 908d 8dbe 5708 e5bd b423 b9bd 89a7 b6bc
00000220: a4b8 57be 04c8 0dbc 7973 3dbe 1986 42be
00000230: 2412 903d e41b 7f3e 5d83 773e 8275 4e3c
00000240: e103 a0bc fdfe 1d3e b73e 4fbe aca6 05be
00000250: 52a4 8fbd f822 333d 64d3 2ebe 0f2d 0fbe
00000260: 3fc8 043e 47b4 ad3d b8db b83e 2a79 e73d
00000270: 8ec2 06be 9a73 a2b9 6c02 ba3d d739 f93c
00000280: 1c10 edbc 1dce a2be 1a81 983d 9c7b f8bb
00000290: 859b cfbb 020f ebbd 032c efbd 5972 023e
000002a0: d973 903d be62 e3bd f31e f13c d7f8 3d3e
000002b0: 6e5c 7abd 9510 8f3c 3c0d 6cbc d813 d6bd
000002c0: 0fa3 543e d716 81be c446 10bd 83ff 813d
000002d0: 645d b63d b533 fc3c db0e 50bd 4ae5 7dbe
000002e0: f06b 15be a7a6 cabd 930d 14be e62c 153e
000002f0: fd58 c93d c3ea b53d b035 66bd 7979 843e
00000300: 52df e63c d11d 81bd 6327 543d 242d babe
00000310: b76f 7dbe 9e97 24be 18e7 e63c 555b 963d
00000320: 77a2 3c3e 8273 67bd 6de7 0bbe b75b a1bd
00000330: 5e21 df3c 2528 21be 7ac1 a73d 1172 063e
00000340: f566 20be 33ce 29bb a6c4 6fbd fdea cb3d
00000350: be3f 39bd 272a b03d 7f20 84be a864 b33d
00000360: b515 8dbe 219a 1fbe 4c08 b1bc 76d3 563c
00000370: 0e8e 903d 23ee b13e 4c17 ca3d f339 32be
00000380: e122 a53d d61b e23c cd29 d8bd 4f39 56bd
00000390: 5f58 a1be a41d 033e 493e f3bd ca84 5d3e
000003a0: 1774 e53d 7843 283d ebec 4dbe a12a 9a3d
000003b0: a631 e73d db98 343e 87fe 0cbd d157 a13e
000003c0: 76bb 20be 3f99 84bd 4d63 f93d 54d8 833e
000003d0: 1fd4 5dbd 39f6 6a3d d5cd 8cbe 6d19 81be
000003e0: ea45 ecbd ae16 34bd a3e8 113e f1a2 813e
000003f0: dd63 763d d7f8 cbbd baae 233d 5d97 6ebe
-0.056168422 0.11383822 -0.17372732 0.07299925 0.08101285 -0.14661576 0.052628364 -0.07365439
0.0177056 -0.025112273 -0.24875084 0.0690951 -0.018421425 -0.060220122 0.14824064 0.07036685
0.1356608 -0.12257063 -0.28091088 0.34481916 -0.29249242 0.116713464 -0.09997811 -0.08859172
0.090690985 0.14872669 0.28751868 -0.13360682 -0.0029813587 -0.14922279 0.09097904 0.011159927
0.017975528 0.15929094 -0.21090677 0.0032716126 -0.28735852 0.066878274 0.11798635 -0.11244906
-0.088339284 0.12822582 -0.20926428 -0.15781645 0.115434654 0.14237162 0.15425424 -0.18178953
-0.018848358 0.0591627 -0.028792346 0.07893782 -0.06522771 0.1496121 0.04055418 -0.11917128
0.27399054 -0.07315356 0.15871331 -0.034535497 0.07585636 0.39059904 0.024508663 -0.0074324757
-0.15159649 -0.21884465 -0.036015306 -0.15274933 -0.07486815 -0.005932037 -0.08996007 -0.09711782
-0.009767222 0.0859451 0.1482103 -0.21817239 0.17170826 0.03222002 -0.27782223 -0.12972446
-0.08876057 -0.1726701 0.14044291 -0.13249542 0.19733839 0.083788015 -0.2856647 0.2058093
0.061671153 0.07848592 -0.0053547365 -0.09685726 0.22826125 -0.15959337 0.04186246 -0.21056062
-0.05213385 -0.029174538 0.17587934 -0.1489452 -0.06824596 0.14393151 0.13747072 -0.154417
0.08009267 -0.06927924 0.009664144 0.14201894 0.17193197 0.08864446 -0.040995933 0.2733042
0.08072539 -0.14320754 0.23187917 -0.119181275 0.11419035 -0.07668938 -0.08783079 -0.06078382
-0.16393457 0.07220013 -0.21584763 0.38503236 0.033909034 0.2339329 0.14935532 0.029649252
-0.16260102 0.030549541 -0.035325076 0.3824245 -0.27647066 -0.11183231 -0.09040013 -0.022296684
-0.21066529 -0.0086536445 -0.1850108 -0.18996467 0.0703471 0.24912983 0.24171205 0.012601258
-0.0195331 0.15429302 -0.20238768 -0.13051862 -0.070137635 0.04373452 -0.17072827 -0.13982032
0.12967013 0.08481651 0.36105132 0.11302407 -0.13160154 -0.00030985178 0.09082493 0.030423088
-0.028938346 -0.31797877 0.07446499 -0.0075830948 -0.006335678 -0.11477472 -0.116783164 0.12738933
0.07053346 -0.11102818 0.029433703 0.18551956 -0.061123304 0.017463962 -0.014407452 -0.10453004
0.20765327 -0.25212738 -0.035223737 0.06347563 0.089045316 0.030786375 -0.050795417 -0.24794498
-0.14591956 -0.09895068 -0.14458303 0.14567909 0.09831426 0.08882668 -0.056203544 0.25873926
0.02818266 -0.06304515 0.051795375 -0.36362565 -0.24749647 -0.16073462 0.028186366 0.07341639
0.1842135 -0.05650664 -0.136625 -0.07878821 0.02723759 -0.1573797 0.081911996 0.1312945
-0.15664275 -0.0025910258 -0.058537148 0.0995693 -0.045226805 0.0860179 -0.25806043 0.08759433
-0.27555624 -0.1558614 -0.021610402 0.01311194 0.07058345 0.34751996 0.09867725 -0.17404918
0.08063293 0.027601164 -0.10554848 -0.052300747 -0.31512734 0.12804276 -0.11877114 0.21632686
0.11203783 0.04107997 -0.20109908 0.07527662 0.112887666 0.17636435 -0.034422424 0.3151231
-0.1569651 -0.06474542 0.12177143 0.25750983 -0.054157373 0.057363722 -0.27500787 -0.2521471
-0.115367725 -0.04396694 0.142489 0.25319627 0.06015383 -0.09959572 0.039961554 -0.23299928

blocks.0.sa.heads.1.tril f4 [8, 8]
00000000: 0000 803f 0000 0000 0000 0000 0000 0000
00000010: 0000 0000 0000 0000 0000 0000 0000 0000
00000020: 0000 803f 0000 803f 0000 0000 0000 0000
00000030: 0000 0000 0000 0000 0000 0000 0000 0000
00000040: 0000 803f 0000 803f 0000 803f 0000 0000
00000050: 0000 0000 0000 0000 0000 0000 0000 0000
00000060: 0000 803f 0000 803f 0000 803f 0000 803f
00000070: 0000 0000 0000 0000 0000 0000 0000 0000
00000080: 0000 803f 0000 803f 0000 803f 0000 803f
00000090: 0000 803f 0000 0000 0000 0000 0000 0000
000000a0: 0000 803f 0000 803f 0000 803f 0000 803f
000000b0: 0000 803f 0000 803f 0000 0000 0000 0000
000000c0: 0000 803f 0000 803f 0000 803f 0000 803f
000000d0: 0000 803f 0000 803f 0000 803f 0000 0000
000000e0: 0000 803f 0000 803f 0000 803f 0000 803f
000000f0: 0000 803f 0000 803f 0000 803f 0000 803f
1.0 0.0 0.0 0.0 0.0 0.0 0.0 0.0
1.0 1.0 0.0 0.0 0.0 0.0 0.0 0.0
1.0 1.0 1.0 0.0 0.0 0.0 0.0 0.0
1.0 1.0 1.0 1.0 0.0 0.0 0.0 0.0
1.0 1.0 1.0 1.0 1.0 0.0 0.0 0.0
1.0 1.0 1.0 1.0 1.0 1.0 0.0 0.0
1.0 1.0 1.0 1.0 1.0 1.0 1.0 0.0
1.0 1.0 1.0 1.0 1.0 1.0 1.0 1.0

blocks.0.sa.heads.1.key.weight f4 [8, 32]
00000000: f180 e1bd f5bd cd3d fcf1 8b3b 2c7d 71be
00000010: 2f22 c03c 9785 843d acc3 c53d 6776 6c3e
00000020: 341d 263d 3439 50be e661 8e3e a495 aabd
00000030: 98c3 60bd 1619 edbd fc8c 9cbd 3250 613e
00000040: f48f 93bc 09ea a6be 7ab4 1b3e b753 68bd
00000050: c54a c9bd e91b 2cbe 14f4 873e 7c3a 853d
00000060: 13c2 09be 1bd4 08be 14cc 273d e2aa 803e
00000070: e39e 23be c619 bb3e cb8f a13d a9cc de3d
00000080: 652b 113c f20b 963e c226 893c e97c 8e3d
00000090: 291f 57bd 9a68 4fbe d5d2 cebd 5884 823d
000000a0: 495b 35be 4904 ad3d 786b 633b c6c2 e9bd
000000b0: 4a7b 8b3c 087c 64be 5ded c1bd d3ca a23d
000000c0: d857 4e3e 3d8d 133e 0ea8 743e c3d1 903d
000000d0: bd1f cc3d cfff 0e3d 57fb 11be 10e1 1ebe
000000e0: 3c23 dbbd 7d35 8d3e 190c 39bd a200 513e
000000f0: 40ea e4bd b619 8e3b f4fc acbe 764d 353e
00000100: b414 65bd cbc9 1cbe 380a 95be d93a 1bbe
00000110: 6801 1dbc 3f70 b83d 2622 393e 4a7e 02bd
00000120: 85ae 753e 6dc5 903e 0f32 05bd 79a9 2e3d
00000130: 94bd 78bc c6fd f83d 9b1c 453e f7af 9f3c
00000140: 2d13 17be ca49 ecbc 1a52 1ebb 84bc dd3e
00000150: a7b0 b93c 5268 383e 9e5d f33d f4dc 88bd
00000160: 454e 7fbd b33e 92be 2c83 243e bbd1 2a3e
00000170: 02f9 8bbe a8c9 8f3d b247 b2be 2513 eabd
00000180: d48f a7bc d9f5 b33d eba1 6fbd cf89 94be
00000190: 6423 c33c f5c5 223e d097 cabd a09b 473e
000001a0: 4106 5ebe 2fda 50bd f734 d93d 7edd 1b3e
000001b0: 74bd 4f3e 3a01 7cbe 3260 3f3d de6b 303e
000001c0: 0b84 0a3e 958d e6bd 616d 263e 46f7 323e
000001d0: 1880 cb3d 0f37 633d bd59 423e 1bdf 62bd
000001e0: b8ff 3ebc f8fd debe 0b06 ad3b 0f9b c3bd
000001f0: 05ee a63d 0810 a33e 10c8 4abe e4d4 f2be
00000200: 5e05 91be 1bef eabd a0e6 08be 96d9 3c3c
00000210: 2a4d a2bc ef10 55be 7664 17bc f6c1 463d
00000220: 0cc8 14be 56c1 7abe bc59 a1bd aff4 31be
00000230: a51b 3bbe adc6 153d 2455 163e 1912 483e
00000240: feed 72bd 2d59 48be 7d0e 803e f821 9fbd
00000250: 7e8f b73d 8ea8 ed3c 5d8a cc3a f40a 56be
00000260: 0256 3cbe 4a87 4fbe 7344 ecba c694 9fbd
00000270: 3a34 753e 8386 2a3d a2ac e6bb 9115 0cbe
00000280: 5cb3 ff3d 9243 2abe 4ebe 96be 7ea3 0abe
00000290: e7d9 70bd a51c b0be 28d8 bb3d 4de7 89bd
000002a0: 91ae 2e3e 1747 74be 1d0b dcbd b2d2 6c3e
000002b0: 2873 bb3d 9071 6b3d 5423 c2bd ce10 563d
000002c0: 115b 7c3d 6a71 10be cdcd 5f3d cb17 a1be
000002d0: 38eb 723e 0e03 d0bc e947 50be ca4a 46bd
000002e0: dba2 283e a35c a43c 1a42 113d 0850 473e
000002f0: d272 373e d967 bebd 13b3 ca3e 15c6 2bbc
00000300: a80b 193d 3acb bebc 9784 2d3e 5049 773e
00000310: 7624 6a3d ff53 153e a8cd 24bd 1b26 583d
00000320: d643 63be 7a29 a33e 00bc f63c 1386 b9bd
00000330: 8174 d3be cab0 54be d7a8 f6bd 660e 81bd
00000340: 2743 f7bd 168f ea3d 7082 803c de36 b2bc
00000350: 431e 4f3e c70f 4abe 032c 37bd af08 5fbe
00000360: 2fd4 3dbd 466b b53d 80e8 c03d 7706 12bd
00000370: fecd 363c 0c61 483e 09e3 733d a76e 06bc
00000380: a089 61bd 0058 62be fcf6 5e3e ae4e 27bd
00000390: 283a 5dbd 51b9 ef3d 9083 ca3e 243f 0cbe
000003a0: 6411 35be 76cf 6f3e 4859 d1bd f96f 8b3d
000003b0: 1122 223e 58b0 373d cbae 0cbe 8467 223e
000003c0: ee9c f13d 8081 443d a1c4 883e 0467 923e
000003d0: e155 11be c974 52be 1041 debd 82b7 1fbd
000003e0: e41b 71be 0075 1fbe bb0b d4be 2a7d 74be
000003f0: cbcb 843e 34c9 2ebb 57a0 e93c 565f 76bd
-0.11010922 0.10045997 0.00427079 -0.23582906 0.0234538 0.06470793 0.09656462 0.23092042
0.040555194 -0.20334321 0.27809066 -0.08329323 -0.054874033 -0.115770504 -0.07644078 0.22003248
-0.018012978 -0.3260043 0.15205565 -0.05672046 -0.09828714 -0.16807522 0.26553404 0.06505296
-0.1345294 -0.13362162 0.04096611 0.25130373 -0.15978579 0.365431 0.078887545 0.108788796
0.008860444 0.2930599 0.016742114 0.069574185 -0.05251995 -0.20254746 -0.10098807 0.06372899
-0.17710604 0.08448083 0.0034701508 -0.11414103 0.017026562 -0.22312939 -0.094691016 0.07948842
0.20150697 0.14409347 0.23892233 0.07071259 0.09966991 0.034911927 -0.14256035 -0.15515542
-0.1070008 0.2757987 -0.045177553 0.20410398 -0.11177492 0.004336561 -0.33786738 0.1770533
-0.055927947 -0.15311353 -0.2910936 -0.15159167 -0.009582855 0.09005784 0.18079433 -0.03185872
0.23992355 0.28275624 -0.032518443 0.04264209 -0.015181918 0.121577784 0.19249193 0.019493086
-0.14753409 -0.02884378 -0.0024157823 0.43307889 0.022667242 0.18008545 0.118830904 -0.066827685
-0.062330503 -0.2856346 0.16065663 0.16681568 -0.27338415 0.07020885 -0.34820324 -0.11429433
-0.020454325 0.08787126 -0.058504026 -0.2901139 0.023820587 0.15895827 -0.09892237 0.1949296
-0.21682073 -0.050989326 0.10605805 0.15221211 0.20287114 -0.24609843 0.0467226 0.17228648
0.13526933 -0.112574734 0.16252662 0.1747714 0.09936541 0.05547243 0.18979545 -0.05538855
-0.011657648 -0.43553138 0.0052802614 -0.095510595 0.081508674 0.31848168 -0.1980288 -0.47428048
-0.28324407 -0.11471387 -0.13369226 0.011526486 -0.019812185 -0.20807241 -0.00924026 0.04852482
-0.14529437 -0.24487814 -0.078784436 -0.17378496 -0.18272264 0.036566425 0.14680916 0.19538154
-0.059309 -0.19565268 0.25011054 -0.07770151 0.08962916 0.029011037 0.00156052 -0.20902616
-0.18392184 -0.20266452 -0.001802577 -0.07792048 0.23945704 0.041632187 -0.0070396224 -0.13680102
0.12485382 -0.16627339 -0.29442066 -0.1353893 -0.058801558 -0.34396854 0.09172088 -0.0673357
0.1705878 -0.23855244 -0.10744307 0.23127249 0.09152824 0.05748135 -0.094793946 0.05226212
0.061610285 -0.14105764 0.054639626 -0.31463465 0.23722541 -0.025392082 -0.20339932 -0.04841117
0.16468374 0.020063704 0.03546343 0.19464123 0.17914894 -0.09297151 0.39589748 -0.010484238
0.037364632 -0.023290265 0.1694511 0.2414906 0.057163678 0.14582823 -0.04023519 0.052770715
-0.22193846 0.31867582 0.030118942 -0.09058776 -0.41299823 -0.20770565 -0.120439224 -0.063015744
-0.12073355 0.11453073 0.015687197 -0.021754678 0.20226388 -0.19732581 -0.044719707 -0.21780656
-0.046344932 0.088583514 0.09419346 -0.035650697 0.011157511 0.1956827 0.05954269 -0.0082050925
-0.05506289 -0.22103882 0.21773905 -0.04084652 -0.05401054 0.11705268 0.395535 -0.13695961
-0.17682415 0.23418984 -0.10222107 0.068084665 0.15833308 0.04484591 -0.13738553 0.158598
0.1179751 0.047975063 0.26712516 0.2859422 -0.14192916 -0.20552363 -0.108522534 -0.038993366
-0.23545796 -0.15571976 -0.414152 -0.23875871 0.25936732 -0.002667022 0.028518839 -0.060149513

blocks.0.sa.heads.1.query.weight f4 [8, 32]
00000000: 8499 613e 2025 a0bd 43eb cd3d 414e 8b3c
00000010: 5f0d cb3d 1176 4c3e 136f 143e f69c 88bd
00000020: 91f8 47be 54ac 903d 555a 7abe a23f 953e
00000030: 482b 5b3e 1ab1 38bd 9177 00be 5cbd 18be
00000040: 0b49 873e 1f69 343d 1ed8 24be 8512 4dbc
00000050: cea9 22be bba0 1bbd c481 8a3d b2ec 87bd
00000060: 3b59 afbe 9751 6f3e 5773 60be 1e29 24be
00000070: f1ab 7b3e 1f76 d93d 5940 81be 5a76 4bbd
00000080: 0f80 bebd 0674 7d3d 5eb7 00be ea0c 4a3d
00000090: b296 02be 403f 06bd 0030 a23d a3e9 5dbe
000000a0: 14bb cabd 186e a63d 744b 503e e798 023d
000000b0: eb08 2f3e ea05 363d 5cf9 773e 532f 3c3d
000000c0: 57fe 5cbe 9fdf 1b3e 5541 3b3e f2bf 623e
000000d0: 2b4d 03be bd63 f2bd 1029 823d 522e 32be
000000e0: 88b3 e2bc b0d8 c43d 408f d33d 4e29 283e
000000f0: aac9 463e 50c4 763d f208 01be 48e9 9d3d
00000100: aea1 a4be c4f6 9a3e 66a5 bb3b 0704 9b3a
00000110: 5897 79bd d60a 503d c84d ee3d 2b09 a13e
00000120: 1a64 7d3e 0219 433c 455b 08be 58ae 2abd
00000130: 0525 5f3e 93df eb3c a682 663e b62a 34bd
00000140: ea8e 723c ccae 47be 93b3 133e 9523 89bd
00000150: 22d4 1d3d 7e27 8fbe c61a 013f e531 adbd
00000160: 22ef 01be 9402 4ebd 0720 28bd edc9 203d
00000170: fd89 39b9 a802 eabd 95bc ddbd 5db9 8c3e
00000180: fd97 63be aaca d63c c7a2 303d 796b 173d
00000190: 7587 133d 9c89 b03e 521e 9bba 066a 4f3e
000001a0: adb4 95be 5c09 2a3d 6fde e93d c930 c73d
000001b0: c292 3939 4f69 8fbe 3a22 5dbd 7a5d 90be
000001c0: 4268 4e3e dba8 0e3d ece1 e73d 5d25 2bbe
000001d0: d1fa 71bd 2837 9dbe 01f8 893d ac01 593e
000001e0: ec61 96be 931b 293e a455 9ebd 08ba bcbd
000001f0: 3747 933c d91a 9b3c 98b5 15be dea5 86bd
00000200: 1e75 413c efd4 95be 513e 183e 9e9a 03bd
00000210: 9aeb 3fbc 3007 533e df94 0ebe aa42 97bd
00000220: 3495 c0bc ce8c debd 0b2b 11be 1542 293d
00000230: cc1f 9d3d e08c 803e 3fd1 863e c1d6 23be
00000240: f73e 18be b91f 8dbc bdf8 ebbc 1657 73be
00000250: 7588 853d 00ec 633d a89b 5dbc 47ef 393e
00000260: b3e1 89be eb12 633d 7255 9fbd 391e 5fbd
00000270: 3d88 913e 4bf8 4e3d e437 4bbe fe8a 863d
00000280: 4f50 5cbe 66b3 d7bd ff94 0c3e 8cd8 86bc
00000290: 687d a1bd 5951 593d 6adf a5bb 7ba1 063d
000002a0: c5ce bcbd 5c80 253c 94d0 153d 711d a43c
000002b0: 1fdd 4b3d 605d 08be ff55 17be 5a43 8b3e
000002c0: 69da 063d 16a1 0c3d c1b7 00be f937 5abe
000002d0: e6ca 903e 676e 0d3e 185a 24be d72b 433e
000002e0: a176 74be dd74 24be f2e1 aebe 63fb 5bbe
000002f0: 9522 383e 0539 153e b8fa b73d 5feb 64be
00000300: 517d f1bc 448b a8bd 4777 e7bd 0d67 fa3d
00000310: cd27 5f3d b191 3c3e 3f91 423e 06c0 83be
00000320: a7c2 10be a532 93bd 2ca9 72be e6e2 183e
00000330: c5ce aa3b 09d3 95bc 0cdf 0f3e 51a9 54be
00000340: ea18 52be b1f4 873e 52a7 4ebe e1ec ce3c
00000350: 8e0a e9bd 9dd4 a0bd 7554 c0bc b7fb 1f3e
00000360: c425 df3d 7dc5 8b3b 09fe 8b3d 067e 713e
00000370: a9d7 dabb 76d2 26be c801 123e 2162 2c3d
00000380: cd86 5fbe 033a a9be bd36 3fbe b849 a6be
00000390: b164 493d fc6c f0bd 7938 4bbe 95da 953c
000003a0: 4b5e a13d 7b80 41be 4244 123e 9fb1 44be
000003b0: 1973 193e 7f36 0c3e 9285 72be e1ac 8abd
000003c0: cf0b 5f3e ea3e f5bd 06ae da3c 2c3e f2ba
000003d0: df2e 62be c0b9 3ebe 335d 2f3e a49d ab3e
000003e0: 8517 8dbd e282 383e 75eb 14bd 0605 8f3e
000003f0: 6149 943b 6c39 e43d 29dd 433e 582d b23d
0.22031218 -0.07819581 0.10054638 0.017005088 0.0991466 0.19966914 0.14495496 -0.06670563
-0.19528414 0.07064119 -0.24448521 0.2915011 0.21403229 -0.045090772 -0.12545611 -0.14915985
0.26422915 0.044045564 -0.16098067 -0.012516622 -0.15885088 -0.03799508 0.06763032 -0.06636943
-0.34247765 0.23370968 -0.21918999 -0.1603131 0.24577309 0.10618233 -0.25244406 -0.049673416
-0.09301769 0.061878227 -0.12569949 0.049328722 -0.12752798 -0.032775164 0.079193115 -0.21671157
-0.098989636 0.081264675 0.20341283 0.0318841 0.17093246 0.044439234 0.24216217 0.04594357
-0.21581398 0.15222023 0.18286641 0.22143534 -0.12822406 -0.1183543 0.06355488 -0.17400482
-0.027673498 0.09611642 0.10330057 0.16422006 0.19412866 0.060245812 -0.12601069 0.077105105
-0.32154602 0.30266392 0.005726504 0.0011826762 -0.06093535 0.050791584 0.11635929 0.31452307
0.24745217 0.011907818 -0.13316067 -0.041670173 0.21791466 0.028793132 0.22510776 -0.043986045
0.014804581 -0.19500273 0.14423971 -0.0669624 0.038532384 -0.27959818 0.5043148 -0.08456782
-0.12688878 -0.050295427 -0.04104617 0.03925507 -0.0001769438 -0.11426288 -0.10826985 0.2748517
-0.22225948 0.026219685 0.043123987 0.03696773 0.036017854 0.34479988 -0.0011834598 0.20255288
-0.29239407 0.041512832 0.11419379 0.09726102 0.00017697646 -0.28010032 -0.05398772 -0.28196317
0.20156959 0.034829002 0.11322388 -0.16713472 -0.059077088 -0.30706143 0.06736756 0.21192044
-0.29371583 0.16514425 -0.077311784 -0.0921517 0.017978294 0.0189337 -0.14620054 -0.065746054
0.011807708 -0.29264018 0.14867522 -0.032129876 -0.011713887 0.2060821 -0.13923977 -0.07385762
-0.023508646 -0.108667 -0.14176576 0.041322786 0.076720804 0.2510748 0.26331517 -0.15999891
-0.14867769 -0.01722704 -0.028805131 -0.2376369 0.06520168 0.05564499 -0.013525881 0.18157683
-0.26930007 0.055437963 -0.07779969 -0.054472182 0.28424254 0.05052976 -0.1984554 0.065694794
-0.2151501 -0.105322644 0.13728712 -0.01646068 -0.078852475 0.053056095 -0.0050620334 0.032868844
-0.09219126 0.010101404 0.03657587 0.02003357 0.049771424 -0.1331687 -0.14778899 0.27199823
0.032923136 0.03433331 -0.12570097 -0.21310414 0.282798 0.13811646 -0.16049993 0.19059692
-0.23873378 -0.16060205 -0.34156758 -0.21482615 0.17981942 0.14572532 0.08983368 -0.22355412
-0.0294787 -0.08229688 -0.11302047 0.122266866 0.054481316 0.18414952 0.1900072 -0.2573244
-0.14136754 -0.07187394 -0.23697346 0.14930305 0.005212637 -0.018289106 0.1404993 -0.20767714
-0.20517316 0.26553872 -0.20181015 0.025259437 -0.11378966 -0.07853053 -0.023477772 0.15623365
0.10895875 0.004265486 0.06835563 0.2358323 -0.0066785407 -0.16291222 0.14258492 0.04208577
-0.21828766 -0.33052072 -0.18673225 -0.32478118 0.049168292 -0.11739537 -0.19845761 0.018292705
0.07879313 -0.18896668 0.14283851 -0.19208382 0.14985313 0.13692664 -0.23683766 -0.06771255
0.21781848 -0.119748905 0.026694309 -0.0018481663 -0.22088192 -0.18625546 0.17125396 0.33518708
-0.068892516 0.18018678 -0.03635736 0.2793352 0.004525349 0.11143765 0.19127335 0.08700055
